GNNUI/bld/model/best_model_taxi_total_trip_countTTTbinaryT0.10.9TTTTTFZINB.pth (torch, 683586 bytes, 18 tensors)

GNN1.Theta1 f4 [1071, 100]
0	0x3d910600	0.070812225
1	0x3dbc641f	0.09198784
2	0xbc867f95	-0.016418258
3	0x3dae1535	0.08500139
4	0xbcd80bf9	-0.026372897
5	0x3c6986d6	0.014253339
6	0xbd650b31	-0.055918876
7	0x3d5dc520	0.05414307
8	0x3dc709f4	0.09718695
9	0xbda21143	-0.07913449
10	0x3db8ec89	0.090294905
11	0x3c5b6970	0.0133918375
12	0x3d8ae41c	0.0678179
13	0x3c0559a3	0.008139047
14	0x3d5bf06b	0.053696077
15	0xbbf7c478	-0.0075612627
16	0x3d902322	0.07037951
17	0x3c1e76d8	0.009671889
18	0xbd330ac9	-0.043711457
19	0x3ca13fc7	0.019683732
20	0xbd5045d4	-0.050847843
21	0xbc905ba0	-0.017621815
22	0xbd59899f	-0.05310976
23	0x3d77e019	0.06051645
24	0xbd95539f	-0.0729134
25	0xbd51b43d	-0.05119728
26	0xbcbaf8d3	-0.022823727
27	0xbd85b74d	-0.065291025
28	0x3b67e40d	0.0035383732
29	0xbdc03121	-0.093843706
30	0x3da6b45f	0.08139872
31	0xbd99099f	-0.07472538
32	0x3d8d9112	0.069124356
33	0x3ccc89cc	0.02496805
34	0xbcb536ce	-0.02212086
35	0x3d8f7a0d	0.07005701
36	0x3cb0cc1e	0.021581706
37	0x3d998442	0.07495929
38	0x3c890901	0.016727926
39	0xbcca4bff	-0.02469444
40	0x3d17dad9	0.037073944
41	0xbcc477ed	-0.023982966
42	0x3d56ff01	0.052489284
43	0x3daabd69	0.08336908
44	0x3d58784f	0.05284911
45	0xbd1786b1	-0.036993686
46	0x3d4c53db	0.04988466
47	0x3ca943fa	0.020662297
48	0x3d3c2be5	0.0459403
49	0xbd80d8c4	-0.06291345
50	0xbdd9908c	-0.10623273
51	0xbd3f1ea1	-0.04666007
52	0xbdaaa3a7	-0.083319955
53	0x3d9cf323	0.07663562
54	0x3cb71fe1	0.022354068
55	0x3d0871a4	0.0333115
56	0x3d219a49	0.03945378
57	0x3b8e0a11	0.004334696
58	0x3d94bcc8	0.0726257
59	0xbd9cedef	-0.0766257
60	0x3c3e4d4f	0.0116151115
61	0xbd9b5735	-0.07584993
62	0x3cd1f613	0.025630033
63	0xbce8d18a	-0.028420229
64	0x3d042b9e	0.03226816
65	0xbce8438b	-0.02835252
66	0x3d9e1c45	0.07720236
67	0xbd88dc9a	-0.066827014
68	0xbd523ca5	-0.051327366
69	0xbd85600d	-0.06512461
70	0x3dcf7f9f	0.10131764
71	0x3d0aca4b	0.033884328
72	0x3dd26b30	0.10274351
73	0xbd9dedd3	-0.07711377
74	0xbdb92c3e	-0.09041642
75	0xbdad8545	-0.08472685
76	0xbd964010	-0.07336438
77	0x3d3f792c	0.046746418
78	0x3cd52bb7	0.026021821
79	0x3d9e9df9	0.07744975
80	0xbd4b0988	-0.049569637
81	0xbd99acbd	-0.0750365
82	0x3d4827bb	0.048866015
83	0xbd09830e	-0.03357225
84	0x3d590d39	0.052991126
85	0xbced75ae	-0.028986778
86	0x3d6f114b	0.0583661
87	0xbd92c2f7	-0.07166093
88	0xbd34c25d	-0.04413067
89	0x3cdf0c30	0.027227491
90	0x3c997922	0.018734518
91	0xbd01ac76	-0.031658612
92	0x3d860648	0.06544167
93	0x3d7a5bdf	0.06112277
94	0xbd903c17	-0.07042711
95	0xbd7927a9	-0.06082884
96	0x3dccaa74	0.09993449
97	0xbce684ac	-0.028139435
98	0xbd1b65b8	-0.037938803
99	0xbdaf2a4b	-0.085529886
100	0xbd80f739	-0.06297154
101	0x3d0ef8b8	0.034905165
102	0xbbc85a8a	-0.0061143087
103	0xbd9cd6bc	-0.07658145
104	0xbb6aab80	-0.0035807788
105	0xbd80107c	-0.06253144
106	0xbdb58335	-0.088629164
107	0xbd4eb541	-0.050465826
108	0xbdb469ea	-0.08809264
109	0xbd8f4cd1	-0.069970734
110	0x3dd93718	0.106062114
111	0x3c5f6128	0.013634004
112	0x3cd759d6	0.026287954
113	0xbdae80ea	-0.08520682
114	0xbd8f1f42	-0.06988384
115	0xbd1eb77e	-0.03874921
116	0x3c9d4999	0.019200133
117	0xbdbea5b2	-0.093089476
118	0xbd11e9b6	-0.035623275
119	0xbd75422a	-0.059877552
120	0x3bdaae6a	0.006673624
121	0xbce42625	-0.02785022
122	0xbb7c9180	-0.0038538873
123	0xbd86aa4a	-0.06575449
124	0xbd81a630	-0.06330526
125	0xbd80c322	-0.06287219
126	0xbce5d02f	-0.028053371
127	0xbdabbee5	-0.083860196
128	0x3da0c94c	0.07850894
129	0xbcaed905	-0.021343717
130	0x3dc2d684	0.09513572
131	0x3ce46070	0.027878016
132	0xbda34753	-0.079725884
133	0x3d93ca84	0.07216361
134	0xbcfd9480	-0.0309546
135	0xbd308a22	-0.043100484
136	0xbdb5e584	-0.08881667
137	0xbdd746b5	-0.10511533
138	0x3cb94eee	0.022620644
139	0xbc7c5134	-0.01540022
140	0x3d3afc30	0.04565066
141	0xbdba675c	-0.091017455
142	0x3d9aa43e	0.07550858
143	0xbda134a9	-0.07871372
144	0xbcb75ef0	-0.022384137
145	0x3c61c755	0.013780435
146	0x3d60913e	0.054826014
147	0x3db0c543	0.08631375
148	0x3daf158a	0.0854903
149	0xbdafb073	-0.08578577
150	0x3c9330b3	0.017967558
151	0xbd464a9b	-0.048410993
152	0xbb497c9c	-0.003074444
153	0xbda432a7	-0.08017474
154	0x3dad2454	0.08454195
155	0xbda2b918	-0.0794546
156	0x3d7024e4	0.05862893
157	0x3cf3d05b	0.029762438
158	0x3cd9e869	0.02660008
159	0xbd7472f3	-0.059679937
160	0x3dafa396	0.085761234
161	0x3c734050	0.014846876
162	0x3c07af74	0.008281577
163	0xbdbe1981	-0.09282208
164	0x3d482569	0.048863802
165	0xbcafc7e7	-0.021457626
166	0xbd523182	-0.051316746
167	0x3dc2c12e	0.09509502
168	0x3c7d6c27	0.01546768
169	0xbd6834f2	-0.056691118
170	0xbd20a117	-0.039216127
171	0xbb8544b7	-0.0040670293
172	0x3d4a8529	0.049443398
173	0xbcc7f5c8	-0.02440919
174	0xbd568c5d	-0.052379955
175	0xbd20bab4	-0.039240554
176	0xbda567b2	-0.08076419
177	0x3d06d7dd	0.032920707
178	0x3dad55a4	0.084636
179	0xbdc3ddf6	-0.0956382
180	0x3c9f3373	0.019433713
181	0x3d701b34	0.058619693
182	0x3c505ba6	0.012717163
183	0xbd012df1	-0.031537954
184	0x3d287b2b	0.041133087
185	0x3d41ba4b	0.047296803
186	0x3d38f9da	0.045160152
187	0xbca5b711	-0.020228894
188	0xbcd61715	-0.026134053
189	0x3c014c9f	0.007891803
190	0xbcc8f82d	-0.024532402
191	0xbcc4b415	-0.024011651
192	0x3d872b46	0.06600051
193	0x3dbe3744	0.09287885
194	0xbc4aa9c2	-0.012369575
195	0xbce01dc9	-0.027357953
196	0xbae73252	-0.0017638898
197	0xbc08e9cc	-0.008356523
198	0x3c8dd484	0.01731325
199	0x3d18bbbf	0.037288424
200	0xbdc5b1a1	-0.09653021
201	0xbcdd0309	-0.026978986
202	0x3dbafa6e	0.09129797
203	0x3d0f34fd	0.034962643
204	0xbc3296c7	-0.010900206
205	0xbd5f49f1	-0.054513875
206	0xbd850eff	-0.06497001
207	0xbdae0806	-0.08497624
208	0xbd07dad4	-0.033167675
209	0x3ce1100d	0.027473474
210	0x3d8f148a	0.069863394
211	0x3d2797c9	0.040916238
212	0xbdbe4e1a	-0.092922404
213	0xbd554c38	-0.05207464
214	0xbca3be21	-0.019988121
215	0x3dbaec75	0.09127132
216	0x3c93b112	0.01802877
217	0xbcfde800	-0.030994415
218	0x3d4807ca	0.048835553
219	0xbd1c0d8a	-0.03809885
220	0xbd6eea76	-0.058329068
221	0x3da8a683	0.082348846
222	0xbd2da5da	-0.042394497
223	0xbc93c4d4	-0.01803819
224	0xbdc0cfb5	-0.09414617
225	0x3d7f91f3	0.062395047
226	0x3da7d013	0.08193984
227	0x3d011375	0.031512696
228	0xbd99bbec	-0.075065464
229	0xbdcd3119	-0.1001913
230	0xbd93b4a0	-0.07212186
231	0x3d920068	0.07128984
232	0x3d58f130	0.05296439
233	0x3db26703	0.08711054
234	0x3d487c86	0.04894688
235	0x3ca84655	0.02054135
236	0xbbde7557	-0.0067888903
237	0xbda76c79	-0.081749864
238	0xbdbbbc40	-0.09166765
239	0xbdb25c9b	-0.08709069
240	0x3d43316a	0.047654547
241	0xbd6dc3a0	-0.05804789
242	0xbc9a7f6d	-0.01885959
243	0xbd80bc25	-0.06285886
244	0xbcbf31c3	-0.023339158
245	0xbd9eb318	-0.07749003
246	0xbd7e874a	-0.06214074
247	0x3d1ebc4c	0.038753793
248	0xbd10b13c	-0.035325274
249	0x3d624426	0.055240773
250	0xbd20e41d	-0.039280046
251	0xbda14a5e	-0.078755125
252	0xbc1fe7ce	-0.009759856
253	0xbd5c5de2	-0.05380047
254	0xbd181e17	-0.03713807
255	0xbdcf60f0	-0.10125911

GNN1.bias f4 [100]
0	0x3afef601	0.0019451977
1	0x3c193016	0.0093498435
2	0xbcd20b75	-0.025640229
3	0xbd1ff34d	-0.03905039
4	0xbd1fdb44	-0.039027467
5	0x3d71a279	0.058992837
6	0xbdd670ec	-0.10470757
7	0x3c68264d	0.014169288
8	0xbd99efc3	-0.07516434
9	0x3d9dfb87	0.07713991
10	0xbc34cb6e	-0.01103483
11	0xbda4b4ad	-0.08042274
12	0xbbd3c54d	-0.006462729
13	0xbceb5e4f	-0.028731493
14	0x3b8af9d7	0.004241209
15	0x3daee792	0.08540262
16	0xbc9d60f6	-0.019211274
17	0x3c7b1afa	0.015326256
18	0x3d0e2be1	0.034709815
19	0x3ca3ad3b	0.019980064
20	0xbda77ee1	-0.08178497
21	0xbc81c5a1	-0.015841307
22	0xbd5fbd88	-0.05462411
23	0xbda89a47	-0.08232551
24	0x3db77bbd	0.08959148
25	0x3d15d14f	0.036576565
26	0xbd9f9d15	-0.07793633
27	0x3d602c41	0.054729704
28	0x3d9990eb	0.07498344
29	0xbc5843fe	-0.013199804
30	0x3b234352	0.0024911952
31	0x3d375cdc	0.044766292
32	0xbcae518b	-0.021279117
33	0xbd8d08ab	-0.06886419
34	0xbcfcef15	-0.030875722
35	0x3d6ec5f1	0.05829424
36	0x3d43dbeb	0.047817152
37	0x3da0d3ca	0.078528956
38	0xbc6121fa	-0.013741011
39	0x3d75622d	0.05990808
40	0xbca65b8f	-0.02030733
41	0x3dbb9f08	0.09161192
42	0xbb6b0593	-0.0035861477
43	0xbd76bc70	-0.0602383
44	0x3d9b110b	0.0757161
45	0x3d37997a	0.0448241
46	0xbd3cb75c	-0.046073303
47	0x3d0ef6eb	0.034903448
48	0x3c42b555	0.011884053
49	0xbdd17742	-0.10227825
50	0xbd9e7c46	-0.07738547
51	0x3c6b4605	0.014359956
52	0xbd5badfc	-0.05363272
53	0x3d4748cb	0.048653405
54	0xbd04f37c	-0.032458767
55	0xbd9ba42d	-0.075996734
56	0x3d362d5c	0.04447685
57	0xbdd5259d	-0.10407565
58	0x3d8a9e96	0.06768529
59	0x3d46a064	0.048492804
60	0xbd3530de	-0.044236057
61	0x3cd0b1f7	0.025475485
62	0x3d9df10c	0.07711992
63	0xbd900dfc	-0.07033917
64	0x3d9a0b96	0.07521741
65	0x3d38ea69	0.045145426
66	0x3c4551b0	0.012043402
67	0xbd819f34	-0.06329194
68	0xbd0e3eb9	-0.034727786
69	0x3dbb00c8	0.091310084
70	0xbcee9106	-0.029121887
71	0x3cda7293	0.026665961
72	0xbdaadfec	-0.08343491
73	0xbdac1d75	-0.08404056
74	0x3d2ea4de	0.0426377
75	0x3c8c3bad	0.0171183
76	0xbd74501f	-0.059646722
77	0x3d8dfea4	0.069333345
78	0xbda37c71	-0.0798272
79	0x3dadf562	0.08494069
80	0xba4a64ca	-0.0007720707
81	0xbd98ecfd	-0.07467077
82	0x3bb84c7c	0.005624352
83	0xbd2ad89e	-0.04171049
84	0xbd8efa87	-0.06981378
85	0x3d21b474	0.039478734
86	0x3d90f68c	0.07078275
87	0x3c83065f	0.015994249
88	0xbb1a3ab9	-0.0023533537
89	0x3d6feb87	0.058574226
90	0xbcbde19d	-0.02317887
91	0x3d74933b	0.059710722
92	0x3b15cb0e	0.0022856626
93	0xbd821e50	-0.06353438
94	0xbd8a2e1d	-0.06747077
95	0x3d8c58e7	0.06852894
96	0x3d2faf14	0.042891577
97	0x3d423e3a	0.047422625
98	0x3d59c627	0.05316749
99	0x3d39c8c3	0.045357477

GNN2.Theta1 f4 [300, 100]
0	0x3d9bac74	0.07601252
1	0x3d484765	0.048896212
2	0x3d6948fd	0.056954373
3	0x3c5ea254	0.013588507
4	0x3dbfa366	0.09357338
5	0x3d81193f	0.063036434
6	0xbd08dead	-0.033415485
7	0xbcfbf647	-0.030757083
8	0xbd822b3c	-0.063559026
9	0xbd5d1f6f	-0.053985056
10	0xbdc3c0d4	-0.095582634
11	0x3d438d11	0.047741953
12	0x3d3f058f	0.04663616
13	0xbdcdcd97	-0.10048979
14	0xbc929634	-0.017893888
15	0xbd7f1ee6	-0.062285326
16	0xbd5bc5b4	-0.05365534
17	0xbd75ff42	-0.060057886
18	0x3d6d0eca	0.057875432
19	0x3d84ab86	0.06478028
20	0xbca06318	-0.019578502
21	0x3b35823d	0.0027696036
22	0x3d9d8d77	0.07692998
23	0xbcc71a3b	-0.0243045
24	0x3d98950a	0.07450302
25	0xbcef1041	-0.029182555
26	0x3cf34f54	0.029700913
27	0x3d61bdd4	0.055112675
28	0xbd821f59	-0.06353635
29	0xbd6d19ad	-0.057885814
30	0xbd241700	-0.040060997
31	0xbb991116	-0.0046712263
32	0xbdaacb43	-0.0833955
33	0xbcb4b068	-0.022056773
34	0x3d0927b0	0.033485115
35	0x3d8456da	0.06461878
36	0x3bea46b2	0.007149541
37	0xbd7d229d	-0.061800588
38	0x3b8c96c6	0.0042904345
39	0xbd814268	-0.06311494
40	0x3d848892	0.06471361
41	0xbda3f72d	-0.080061294
42	0x3d7f6192	0.06234891
43	0x3c81ffda	0.01586907
44	0x3d12961e	0.035787694
45	0xbd7c9556	-0.061665855
46	0xbcd1090a	-0.025517005
47	0xbdc90b27	-0.0981658
48	0x3a32b10b	0.00068165426
49	0x3c923bb3	0.017850732
50	0x3d8ef7ac	0.069808334
51	0x3d5d0ae1	0.053965453
52	0xbca76d4d	-0.02043786
53	0xbd9998d5	-0.074998535
54	0x3dcdc64a	0.10047586
55	0xbd2bc51f	-0.041936036
56	0x3d1c3bcb	0.03814296
57	0x3da2df45	0.079527415
58	0x3da8734a	0.08225115
59	0x3cb72693	0.02235726
60	0xbccb74d2	-0.024835978
61	0x3dba91eb	0.09109863
62	0x3d4113db	0.047138076
63	0x3d4bda0e	0.0497685
64	0x3b7634e6	0.003756815
65	0x3d6974c8	0.056996137
66	0x3d70b2ae	0.058764152
67	0x3c1c52af	0.009541198
68	0x3db99c62	0.09063031
69	0xbd5446ad	-0.051825214
70	0x3c4a091a	0.012331272
71	0xbd10aa75	-0.03531881
72	0x3d18ce93	0.03730638
73	0x3aab4a61	0.0013068431
74	0x3b9f95c5	0.004870149
75	0x3d49eaaf	0.049296077
76	0xbd01b7c8	-0.031669408
77	0x3d296150	0.04135257
78	0x3d3db5af	0.046315845
79	0xbdcc0fa4	-0.09963921
80	0xbd50d047	-0.05097988
81	0x3db67b80	0.089102745
82	0xbd00eaa2	-0.031473763
83	0x3d8e9455	0.06961886
84	0x3d0b2d7f	0.033978935
85	0x3dadd47e	0.08487795
86	0xbdcc9570	-0.099894404
87	0x3d6ec945	0.058297414
88	0x3ceb4fcf	0.02872458
89	0xbd86250d	-0.065500356
90	0x3daed786	0.085372016
91	0xbd7caeb0	-0.061690032
92	0xbd1cd915	-0.038292963
93	0x3d8cd34a	0.06876238
94	0xbd80e180	-0.06293011
95	0xbb8f656d	-0.0043761046
96	0xbd814b48	-0.06313187
97	0xbd13566e	-0.035971098
98	0xbc9dd261	-0.019265356
99	0xbbe90828	-0.007111568
100	0xbdba1dd5	-0.09087721
101	0xbdaba173	-0.08380403
102	0x3dcb0f27	0.099149995
103	0x3c6bc979	0.014391297
104	0x3da8de07	0.08245473
105	0xbd988c4b	-0.07448634
106	0xbd7a48cf	-0.061104592
107	0xbcebf51b	-0.028803399
108	0x3d353ad5	0.04424556
109	0x3db5bb99	0.08873672
110	0x3d7782e6	0.06042757
111	0xbd971c05	-0.07378391
112	0xbd7758ea	-0.06038753
113	0xbd47b7aa	-0.04875914
114	0x3d1a7cbc	0.037716612
115	0x3d8df888	0.06932169
116	0xbda783f6	-0.081794664
117	0xbdbc5673	-0.091961764
118	0x3d4f4bf1	0.050609533
119	0xbdacfc4c	-0.08446559
120	0xbd5d2240	-0.05398774
121	0x3c6fc4a2	0.014634283
122	0xbd27bb6d	-0.040950228
123	0xbce988cb	-0.02850761
124	0x3c0bb3e1	0.008526773
125	0xbc697cdb	-0.014250959
126	0xbd295b9b	-0.041347127
127	0x3db82f52	0.08993401
128	0x3d284d94	0.04108961
129	0x3cddb975	0.027065972
130	0x3cae2b1c	0.02126079
131	0xbce7bfcd	-0.0282897
132	0xbd0b104e	-0.033951096
133	0x3d2477f2	0.04015345
134	0xbd999d63	-0.07500722
135	0x3cd0d9f9	0.025494562
136	0x3dde2d02	0.10848428
137	0x3c6a9dd5	0.014319857
138	0x3a09ce95	0.00052569184
139	0xbdb598d9	-0.08867044
140	0xbd5b4801	-0.053535465
141	0x3d99b1fb	0.0750465
142	0x3bcdab32	0.0062765116
143	0xbd8fbdce	-0.07018624
144	0xbcec84c6	-0.028871905
145	0x3dafa86a	0.08577044
146	0x3c086418	0.008324645
147	0x3d83face	0.064443216
148	0xbba0d573	-0.0049082576
149	0x3db3289a	0.087479785
150	0x3cb68423	0.022279805
151	0x3d13bef9	0.036070798
152	0x3d03c5b3	0.032170963
153	0x3cf0f57b	0.02941393
154	0xbd9ec0aa	-0.077515915
155	0xbd423d78	-0.047421902
156	0xbaf2fc81	-0.0018538387
157	0xbd08bdd0	-0.033384144
158	0xbd6e1fc2	-0.058135755
159	0x3d9ef0d0	0.07760775
160	0x3d332045	0.043731946
161	0xbbc49b14	-0.005999932
162	0xbbd15280	-0.0063880086
163	0xbdb77bf1	-0.08959187
164	0xbd672f5a	-0.056441642
165	0xbcb520e5	-0.022110412
166	0x3cb8bce7	0.022551013
167	0x3db3b97a	0.08775611
168	0x3a09bdf5	0.0005254441
169	0xbd4993b0	-0.04921311
170	0x3ca17260	0.019707859
171	0xbd51df92	-0.051238604
172	0xbd7ffbd3	-0.062496018
173	0x3b89389d	0.004187657
174	0x3d86c842	0.06581165
175	0xbc982e45	-0.01857675
176	0x3ce5ec9b	0.028066924
177	0xbb87c9f2	-0.004143947
178	0x3d819078	0.06326383
179	0x3d3c4338	0.045962542
180	0xbd18105a	-0.03712497
181	0x3d98091c	0.074236125
182	0xbb693935	-0.0035587077
183	0x398a9632	0.00026433315
184	0x3d1579fb	0.036493283
185	0x3c2823dc	0.010262456
186	0xbddb89b0	-0.10719621
187	0x3dc12c1b	0.094322406
188	0xbdb5012b	-0.088381134
189	0xbde1b0d1	-0.11020053
190	0xbda0d7ec	-0.07853684
191	0xbcf31068	-0.029670909
192	0x3cf44191	0.02981642
193	0xbd5f956d	-0.054585863
194	0x3ca65397	0.02030353
195	0x3cc70461	0.02429408
196	0xbd86b8f5	-0.065782465
197	0xbcd0822f	-0.025452701
198	0xbd6cb59d	-0.057790387
199	0xbdacbdef	-0.084346645
200	0x3d066f4e	0.032820992
201	0xbd3dc90f	-0.046334323
202	0xbd7b7ff6	-0.06140133
203	0x3d0a82f9	0.03381631
204	0xbd1c074c	-0.038092896
205	0xbd97c0a6	-0.07409792
206	0xbd1fdf2c	-0.039031193
207	0x3d6cccfa	0.05781267
208	0x3db3f0c7	0.08786159
209	0x3c58a2d8	0.013222419
210	0x390b4f9f	0.00013285734
211	0xbd9bad36	-0.07601397
212	0x3b4962cf	0.003072906
213	0xbd86072c	-0.06544337
214	0x3d98d098	0.07461661
215	0xbc02d177	-0.007984511
216	0x3d205e5d	0.03915249
217	0x3ce1c3fe	0.027559277
218	0xbd6f3e36	-0.05840894
219	0xbd9dd15b	-0.07705947
220	0xbcda39b8	-0.02663885
221	0x3cc364d2	0.023851786
222	0xbd2a13f1	-0.041522924
223	0xbdd5f836	-0.10447733
224	0x3cac696c	0.021046363
225	0x3d1187f2	0.03553004
226	0xbd03a871	-0.03214306
227	0x3d1d307d	0.03837632
228	0x3d9c0e64	0.07619932
229	0x3d91a1e3	0.071109556
230	0xbd846ec2	-0.06466438
231	0xbd9a9020	-0.07547021
232	0xbd412948	-0.04715851
233	0xbd8368ac	-0.06416449
234	0xbda37326	-0.07980947
235	0xbdc49dd4	-0.09600416
236	0xbc9b0167	-0.018921567
237	0x3c560baf	0.013064309
238	0xbdc590a6	-0.0964673
239	0x3d89fd39	0.067377515
240	0xbdc378a8	-0.09544498
241	0xbd27ceb6	-0.04096862
242	0xbb62049c	-0.003448761
243	0xbd4645b2	-0.04840631
244	0xbdad8a08	-0.08473593
245	0xbcbcfa53	-0.023068583
246	0x3dcede70	0.1010102
247	0x3d27e89d	0.04099332
248	0x3c89e8d8	0.016834661
249	0x3d7bfc4f	0.061519917
250	0xbdca6187	-0.09881883
251	0xbd1da164	-0.038483992
252	0x3cc39567	0.023874952
253	0xbda0e0b8	-0.07855362
254	0x3ba50749	0.005036269
255	0x3d75b60a	0.05998806

GNN2.bias f4 [100]
0	0xbc1b1314	-0.009464998
1	0xbcdadc50	-0.026716381
2	0xbc66c964	-0.014086101
3	0x3d52d5f7	0.051473584
4	0xbd85d285	-0.06534294
5	0x3be3b886	0.006949487
6	0xbd50dcbf	-0.05099177
7	0xbda5aefc	-0.08090016
8	0x3cbdf2bd	0.023187036
9	0xbd2fcb35	-0.042918403
10	0x3dd770b5	0.10519544
11	0xbdc7e8b1	-0.09761179
12	0xbdcbcc03	-0.099510215
13	0xbdada3fe	-0.08478545
14	0xbd9d65e1	-0.076854475
15	0xbd8f08f5	-0.0698413
16	0x3d300814	0.042976454
17	0x3cadf745	0.021236071
18	0xbd9378bd	-0.072007634
19	0x3d36a6d3	0.04459269
20	0x3d99231f	0.07477402
21	0xbdaf9730	-0.085737586
22	0x3db2fc57	0.08739536
23	0x3d11e4ee	0.035618715
24	0xbc98d08d	-0.018654132
25	0x3d04d4bb	0.032429438
26	0xbd985400	-0.07437897
27	0xbdb6d3ff	-0.08927154
28	0xbc22af06	-0.009929424
29	0x3cb81d3a	0.022474874
30	0x3dcf9958	0.1013667
31	0xbc69a3d7	-0.014260254
32	0x3db14507	0.08655744
33	0xbdb4649a	-0.08808251
34	0x3bcac0bf	0.006187528
35	0x3d1a5666	0.037680052
36	0x3d57e06b	0.052704256
37	0x3d3cdfcc	0.046111867
38	0xbbb95384	-0.005655708
39	0xbd37d4dd	-0.044880737
40	0xbb8785df	-0.0041358317
41	0x3cc0e300	0.023545742
42	0xbdd9f787	-0.10642915
43	0xbd370551	-0.044682804
44	0x3d8ead47	0.06966644
45	0xbc4824e5	-0.012215828
46	0xbd7cd07e	-0.06172227
47	0xbd8d96de	-0.06913541
48	0x3d6ae807	0.057350185
49	0xbca35c57	-0.019941492
50	0x3d51cf1c	0.051222906
51	0x3a324fc6	0.00068020483
52	0x3dd60795	0.10450665
53	0x3d81cd22	0.06337954
54	0xbd6ea80e	-0.05826574
55	0xbd86daef	-0.06584727
56	0x3bc76150	0.0060845986
57	0x3c755fc2	0.014976444
58	0x3d995fc3	0.07488968
59	0x3d53162f	0.051534828
60	0xbcacb768	-0.021083549
61	0xbc458881	-0.012056471
62	0x3d87dd34	0.06633988
63	0xbd382d49	-0.044965062
64	0x3d1794d1	0.037007157
65	0x3cb01f37	0.02149926
66	0xbda292e9	-0.07938177
67	0x3ce30d0c	0.027716182
68	0x3d8a60fa	0.06756778
69	0x3d24302e	0.04008501
70	0xbd2bcf2d	-0.041945625
71	0x3d4709e3	0.048593413
72	0xbc4f8adf	-0.012667387
73	0xbd73f51f	-0.059559938
74	0xbd9226ce	-0.07136308
75	0x3cf60711	0.030032666
76	0xbd7cb9f8	-0.06170079
77	0xbcff892e	-0.031193342
78	0xbd218f6a	-0.03944341
79	0xbdaa96be	-0.08329533
80	0xbda4e2ed	-0.08051095
81	0x3dda2007	0.1065064
82	0xbd51be27	-0.051206734
83	0x3b884a80	0.0041592717
84	0x38a3f0dc	7.817309e-05
85	0x3d88857b	0.066660844
86	0xbd91444e	-0.07093106
87	0xbdd1c444	-0.10242513
88	0xbd7b195d	-0.061303485
89	0x3da95691	0.08268464
90	0xbdc47d08	-0.0959416
91	0xbcf6bc2a	-0.03011902
92	0x3c5e7f45	0.013580148
93	0x3dc75de0	0.09734702
94	0x3daa90a2	0.08328368
95	0xbd13e602	-0.036108024
96	0xbd65a0a0	-0.056061387
97	0x3d2d2147	0.042268064
98	0x3d179153	0.037003826
99	0xbd94122c	-0.072300285

GNN3.Theta1 f4 [300, 100]
0	0xbdbc721e	-0.092014536
1	0xbdbd40fb	-0.0924091
2	0x3c9d5e66	0.019210052
3	0x399f9444	0.0003043731
4	0xbc679494	-0.014134545
5	0x3b7c098d	0.003845784
6	0xbd2d2259	-0.042269085
7	0x3db1400a	0.086547926
8	0xbd2aa574	-0.041661695
9	0xbc08cc5a	-0.008349502
10	0xbd8749b2	-0.06605853
11	0xbd98ad69	-0.0745495
12	0xbd221bf5	-0.039577443
13	0x3dd524a0	0.10407376
14	0xbcd8ab43	-0.026448851
15	0xbd454f66	-0.048171423
16	0xbc581e28	-0.013190784
17	0x3d4f43d6	0.050601803
18	0x3d2ccda7	0.042188313
19	0xbd5f2b20	-0.054484487
20	0xbd3db7c4	-0.04631783
21	0xbd6bcf32	-0.057570644
22	0xbd989555	-0.07450358
23	0xbd33f168	-0.043931395
24	0x3da205fc	0.07911298
25	0x3d212d5c	0.0393499
26	0xbd06b82b	-0.03289048
27	0xbd319493	-0.043354582
28	0x3cf9d399	0.030496405
29	0x3cca17d2	0.024669562
30	0xbc97b593	-0.018519199
31	0xbda9feeb	-0.08300575
32	0xbdbbf591	-0.091776974
33	0xbdb1a8f3	-0.08674803
34	0x3d900305	0.07031826
35	0x3d97f85c	0.07420418
36	0xbd003a3a	-0.03130553
37	0xbda9966d	-0.082806446
38	0x3d143e12	0.036192007
39	0xbd13f37d	-0.03612088
40	0xbd983752	-0.074324265
41	0xbc362793	-0.011117834
42	0xbd2773d4	-0.040881947
43	0x3da1301f	0.078705065
44	0x3d7d33a7	0.061816838
45	0xbda9ce0c	-0.082912534
46	0xbd211f41	-0.039336447
47	0x3d200b20	0.03907311
48	0x3d85bdd2	0.06530346
49	0xbd91af3a	-0.071135
50	0xbd8ffbd5	-0.07030455
51	0x3dafaa39	0.08577389
52	0x3cc73d91	0.02432135
53	0x3d365275	0.04451223
54	0x3d9dfc72	0.07714166
55	0x3dbfea59	0.0937087
56	0xbd80164f	-0.06254255
57	0xbd56174d	-0.052268315
58	0x3dbc2bd6	0.091880485
59	0x3bb4e406	0.0055203466
60	0xbd92f608	-0.07175833
61	0xbb9bba78	-0.0047524534
62	0x3db9b9b9	0.09068627
63	0xbc82c17e	-0.015961405
64	0xbda22d27	-0.079187684
65	0xbd9d4f21	-0.07681108
66	0x3d37c6e4	0.04486741
67	0xbcb34ab1	-0.021886202
68	0x3d8d4e6c	0.068997234
69	0xbdd2e5bf	-0.10297727
70	0x3da169e0	0.07881522
71	0x3d95fac1	0.07323218
72	0xbccadf34	-0.024764635
73	0x3dbd611f	0.0924704
74	0x3db69c22	0.08916499
75	0xbcb7223f	-0.022355197
76	0x3dcce376	0.10004322
77	0xbc703f78	-0.01466357
78	0x3d23f8a0	0.04003203
79	0x3d7fda1e	0.062463872
80	0x3db058d1	0.086106904
81	0x3db52b11	0.08846105
82	0x3d1cd0b9	0.03828499
83	0xbd310a72	-0.043222852
84	0x3c4414d3	0.0119678555
85	0x3d8c4755	0.06849543
86	0xbcdfe54e	-0.02733102
87	0x3dd75e74	0.105160624
88	0x3d62d96d	0.055383135
89	0x3dc329c8	0.095294535
90	0x3cd6e284	0.026231058
91	0xbc8fc13e	-0.0175482
92	0xbdb7a753	-0.089674614
93	0x3d9bc1e9	0.07605345
94	0x3d2f34ca	0.042774953
95	0x3d2825c6	0.04105165
96	0xbdbe4e78	-0.092923105
97	0xbc7eab20	-0.015543729
98	0xbdaea40c	-0.08527383
99	0xbcac60af	-0.021042196
100	0xbdbc6fc5	-0.09201006
101	0x3d0c7a84	0.034296528
102	0xbd9a977d	-0.07548425
103	0xbd59f768	-0.05321446
104	0x3d7da7fb	0.061927777
105	0xbcbd04f6	-0.023073655
106	0xbd8d574e	-0.06901418
107	0x3c8012fb	0.01563405
108	0xbd87df01	-0.066343315
109	0xbcbde906	-0.023182403
110	0x3cbedbd7	0.023298187
111	0xbca8c786	-0.020602953
112	0x3d9b25e8	0.075755894
113	0xbd908b2c	-0.07057795
114	0xbdb33e9e	-0.08752178
115	0x3c4c3aa8	0.012465157
116	0x3db5a473	0.08869257
117	0x3cec941c	0.028879218
118	0x3c1c778b	0.009549986
119	0xbc88b660	-0.016688526
120	0x3d4fb6dd	0.0507115
121	0x3d84df1e	0.06487869
122	0xbd21d5b1	-0.039510433
123	0xbd938a5c	-0.07204124
124	0xbd7c9d5b	-0.061673503
125	0x3db8f7f6	0.0903167
126	0xbd5e7920	-0.054314733
127	0xbda250c7	-0.07925563
128	0xbbb502c7	-0.0055240127
129	0x3bc586dc	0.0060280394
130	0xbd995708	-0.07487303
131	0x3cb979c7	0.022641076
132	0x3d7af9a7	0.061273243
133	0x3d2a5eeb	0.041594427
134	0x3d105324	0.03523554
135	0xbd9f2c8a	-0.07772167
136	0x3d34e95a	0.044167854
137	0xbc12877b	-0.008943434
138	0x3db111c5	0.086459674
139	0xbdbbedf7	-0.091762476
140	0x3d575aea	0.052576937
141	0x3d9eb1b5	0.07748739
142	0xbcfab332	-0.030603025
143	0x3c8247a7	0.015903307
144	0x3cf86bc4	0.030324824
145	0x3ca00c50	0.019537121
146	0x3d103b89	0.035213027
147	0xbd46e839	-0.04856131
148	0xbd8e448a	-0.069466665
149	0x3d944c31	0.07241095
150	0x3c9eea69	0.019398885
151	0x3c6a47b5	0.014299323
152	0xbd9f2043	-0.07769825
153	0xbcd95645	-0.026530394
154	0xbb24c643	-0.0025142587
155	0xbda84346	-0.082159564
156	0xbdbab995	-0.09117428
157	0x3dac29de	0.08406423
158	0xbd11947c	-0.035541996
159	0xbd654c2e	-0.055980854
160	0xbdadc126	-0.08484106
161	0x3dbccfd9	0.09219331
162	0x3d975bb0	0.07390535
163	0xbdcfd7a0	-0.10148549
164	0xbd5a1450	-0.053242028
165	0x3db4ced3	0.08828511
166	0xbdb2f342	-0.08737804
167	0xbce17310	-0.027520686
168	0xbd276af3	-0.04087348
169	0xbd8fea90	-0.07027161
170	0xbc636804	-0.01387978
171	0xbd8abb06	-0.06773953
172	0xbd233e65	-0.039854426
173	0x3c91fb2f	0.017819969
174	0xbd3a568d	-0.045492698
175	0x3ce884ae	0.02838358
176	0xbd730359	-0.059329364
177	0x3d0ce283	0.034395706
178	0xbd60c9d2	-0.05487997
179	0xbd525a79	-0.051355813
180	0x3c78c699	0.015184068
181	0x3bc520c0	0.006015867
182	0x3d0c803d	0.034301985
183	0xbc90e2f1	-0.01768634
184	0xbcc78e06	-0.024359714
185	0x3d3b3e29	0.045713577
186	0x3d1da576	0.038487874
187	0xbcec7fc9	-0.028869526
188	0xbd2de268	-0.042452246
189	0xba509c91	-0.00079579005
190	0xbd8232ad	-0.06357322
191	0xbc0c20db	-0.008552755
192	0xbd0e47f9	-0.034736607
193	0xbd6eba21	-0.058282975
194	0xbd734c9b	-0.05939923
195	0xbd4eeac7	-0.05051687
196	0xbd899f03	-0.06719782
197	0x3cc0c842	0.02353299
198	0xbd68cfda	-0.056838848
199	0x3dcf5879	0.10124297
200	0xbc896aa0	-0.016774476
201	0xbd133051	-0.03593475
202	0x3d6ab768	0.057303816
203	0xbda1f8ba	-0.07908769
204	0x3d93aca7	0.07210665
205	0xbcabf99b	-0.020993045
206	0xbd39664f	-0.045263585
207	0xbdb24103	-0.08703806
208	0x3d930f79	0.071806855
209	0x3da667d8	0.081252754
210	0xbc528829	-0.012849846
211	0x3db6ea8a	0.089314535
212	0xbd84a151	-0.06476081
213	0x3d6db74f	0.058036145
214	0xbce22c3d	-0.027608985
215	0xbd7eec4c	-0.06223707
216	0x3d7ca7d3	0.061683487
217	0x3cf0e0a9	0.029404001
218	0x3d88ad8a	0.06673725
219	0xbd1b2efd	-0.03788661
220	0xbd2f6d7d	-0.042829026
221	0xbda14f5b	-0.07876464
222	0x3ced051e	0.028933104
223	0xbd90d424	-0.070717126
224	0x3b74c5e4	0.0037349397
225	0xbdae5667	-0.08512574
226	0x3da29918	0.079393566
227	0x3cdcd479	0.026956784
228	0xbcecf05e	-0.02892321
229	0x3b9c9dc2	0.0047795484
230	0x3dae3df9	0.08507914
231	0xbd4c35dd	-0.049856056
232	0x3d41e33a	0.04733584
233	0xb991a167	-0.0002777681
234	0x3c183d78	0.009291999
235	0xbd302776	-0.043006383
236	0xbd0cb853	-0.034355473
237	0x3dbd5f19	0.09246654
238	0xbd3c3306	-0.045947097
239	0x3c511b47	0.012762851
240	0x3d3f4e70	0.046705663
241	0x3c81359e	0.015772637
242	0xbd02fa5a	-0.031977035
243	0x3d2f057e	0.042729847
244	0xbca12d8c	-0.019675039
245	0xbc648b13	-0.0139491735
246	0x3d6f1039	0.05836508
247	0xbccc028b	-0.024903556
248	0xbced4cda	-0.02896731
249	0xb821f2c3	-3.861148e-05
250	0xbd9f7ec4	-0.077878505
251	0xbd785e9d	-0.060637105
252	0xbdac1d98	-0.08404082
253	0x3dd0cd3d	0.10195396
254	0x3dbe0adb	0.09279414
255	0x3a96b1d8	0.0011497093

GNN3.bias f4 [100]
0	0x3d20ba69	0.039240275
1	0x3d4af9a0	0.049554467
2	0x3b17d8e3	0.0023170046
3	0x3d428e11	0.047498766
4	0x3d80c73b	0.06288
5	0x3d95ecf4	0.07320586
6	0x3d71d3a1	0.059039716
7	0x3dcd0af8	0.10011858
8	0x3d74a671	0.059729043
9	0xbd00bade	-0.03142821
10	0x3cf8b613	0.030360257
11	0x3d5f8858	0.054573387
12	0x3cdbf5a5	0.02685053
13	0xbdc6880b	-0.09693917
14	0xbc83f2d9	-0.01610701
15	0xbcb6e8f0	-0.02232787
16	0x3cbe048a	0.023195524
17	0xbd15d797	-0.036582556
18	0xbd0e353a	-0.03471873
19	0x3d6148db	0.05500112
20	0xbd00d4e3	-0.031453025
21	0xbc57d72a	-0.013173858
22	0x3d8f6008	0.070007384
23	0xbdc1daf4	-0.0946559
24	0x3c6c505d	0.014423457
25	0x3da4ca3e	0.08046387
26	0xbcfe13ce	-0.031015303
27	0x3cb476a8	0.022029236
28	0xbd3cec72	-0.04612393
29	0x3d2c6476	0.042087995
30	0xbd88737f	-0.06662654
31	0x3d3e1880	0.046410084
32	0x3d8729f9	0.065998025
33	0x3d8d2a44	0.06892827
34	0xbd279172	-0.04091019
35	0x3c7d0315	0.015442629
36	0xbdc624d5	-0.09674994
37	0x3d647796	0.05577811
38	0x3cd615ef	0.026133506
39	0xbcbd0aa0	-0.023076355
40	0xbdc1b37e	-0.094580635
41	0x3c07d1a9	0.008289733
42	0xbdae46ab	-0.085095726
43	0xbcc2a2f9	-0.023759352
44	0xbdb88444	-0.09009603
45	0xbd8b72a7	-0.068089776
46	0x3dc333d7	0.09531372
47	0x3d257cd2	0.04040224
48	0xbd308db3	-0.043103885
49	0xbd165865	-0.036705393
50	0x3d92fd2f	0.07177197
51	0x3d19ea89	0.037577186
52	0x3d915ec8	0.07098156
53	0x3d1f5100	0.038895607
54	0x3cea062b	0.028567394
55	0xbd868d62	-0.065699354
56	0xbd87b8fb	-0.06627079
57	0x3d897ddb	0.06713458
58	0xbdd24c9c	-0.10268518
59	0x3d7d2419	0.061802004
60	0x3c993174	0.018700339
61	0xbd4ba107	-0.049714115
62	0xbdc6e39a	-0.0971138
63	0x3cbee2c5	0.023301492
64	0xbd081286	-0.03322079
65	0xbd6066fc	-0.054785714
66	0xbcbeff15	-0.023314992
67	0xbd5a422c	-0.053285763
68	0x3bf43cb9	0.007453528
69	0x3c288660	0.010285944
70	0x3d7055b0	0.058675468
71	0xbd6c3c31	-0.05767459
72	0xbd8861d7	-0.066592865
73	0xbda03d8a	-0.07824238
74	0xbda5af66	-0.08090095
75	0xbd770892	-0.060310908
76	0x3d83abd6	0.064292595
77	0xbd822969	-0.063555546
78	0x3d21b186	0.03947594
79	0xbd95725b	-0.07297202
80	0x3d767fc3	0.060180437
81	0x3d9af368	0.07565957
82	0x3c190a03	0.009340766
83	0xbc2fd23f	-0.010731279
84	0xbce9fe88	-0.028563753
85	0x3d83c1e9	0.0643347
86	0xbd0a7943	-0.03380705
87	0xbd4e6f36	-0.050399028
88	0xbca6be4f	-0.020354418
89	0xbda7bb0a	-0.08189972
90	0xbdaa052c	-0.08301768
91	0xbdb44b8f	-0.08803474
92	0xbdd7d1c1	-0.10538054
93	0xbb0b8e77	-0.0021294632
94	0xbd859c84	-0.065239936
95	0x3dacdd7e	0.08440684
96	0xbdb4a3a9	-0.08820278
97	0x3d93700a	0.07199104
98	0x3cd77153	0.026299154
99	0x3d86069b	0.06544229

ln1.weight f4 [100]
0	0x3f80c080	1.0058746
1	0x3f809203	1.0044559
2	0x3f80aca4	1.0052686
3	0x3f7dde90	0.9916773
4	0x3f7fe9b7	0.99965996
5	0x3f7e2333	0.9927246
6	0x3f7dfb1d	0.99211293
7	0x3f7d4b75	0.98943263
8	0x3f7fde18	0.99948263
9	0x3f80f983	1.0076145
10	0x3f7e3dfd	0.99313337
11	0x3f80b676	1.0055683
12	0x3f7dc746	0.9913219
13	0x3f8129f5	1.0090929
14	0x3f80c012	1.0058615
15	0x3f809015	1.004397
16	0x3f7e8103	0.99415606
17	0x3f80fea7	1.0077714
18	0x3f7f00d3	0.9961063
19	0x3f7e5d67	0.9936127
20	0x3f80cc3c	1.0062327
21	0x3f7ea9f1	0.9947806
22	0x3f7e5b1e	0.99357784
23	0x3f7d343d	0.98907834
24	0x3f8116a2	1.0085032
25	0x3f7dc687	0.99131054
26	0x3f7f3ea2	0.99704945
27	0x3f808515	1.0040613
28	0x3f807fa7	1.0038956
29	0x3f7f7b5d	0.9979761
30	0x3f7e51e1	0.9934369
31	0x3f7fbfbf	0.99901956
32	0x3f80426b	1.0020269
33	0x3f7f21f0	0.9966116
34	0x3f7f43c7	0.99712795
35	0x3f7e7075	0.99390346
36	0x3f814dbd	1.0101849
37	0x3f8002b9	1.0000831
38	0x3f80dc8f	1.0067309
39	0x3f809bfd	1.0047604
40	0x3f7e0e9c	0.9924104
41	0x3f7fc35c	0.9990747
42	0x3f816811	1.0109884
43	0x3f7e9624	0.99447846
44	0x3f8108a8	1.0080767
45	0x3f7db1fc	0.9909971
46	0x3f808746	1.0041282
47	0x3f812d4f	1.0091952
48	0x3f813d0a	1.0096753
49	0x3f7ecc3a	0.99530375
50	0x3f7dc523	0.9912893
51	0x3f7e65d2	0.99374115
52	0x3f7e29ad	0.9928234
53	0x3f80d974	1.0066361
54	0x3f8107f2	1.008055
55	0x3f7fefd2	0.9997531
56	0x3f80a2a6	1.0049636
57	0x3f808bcd	1.0042664
58	0x3f80dd7d	1.0067593
59	0x3f80bdb1	1.0057889
60	0x3f80d719	1.0065643
61	0x3f7e23df	0.99273485
62	0x3f7e3893	0.99305075
63	0x3f812ea7	1.0092362
64	0x3f7e78ee	0.99403274
65	0x3f7e62ff	0.99369806
66	0x3f80fea6	1.0077713
67	0x3f7d52ea	0.9895464
68	0x3f7e5b57	0.99358124
69	0x3f80d0b8	1.0063696
70	0x3f7e2fb3	0.99291533
71	0x3f7e019b	0.992212
72	0x3f7e56c7	0.9935116
73	0x3f80f8c1	1.0075914
74	0x3f80184d	1.0007416
75	0x3f7ee15e	0.99562633
76	0x3f810bd6	1.0081737
77	0x3f8013b1	1.0006009
78	0x3f7e561d	0.9935015
79	0x3f7e9c5b	0.9945733
80	0x3f7ee591	0.9956904
81	0x3f8113f6	1.0084217
82	0x3f811776	1.0085285
83	0x3f7fa057	0.99854034
84	0x3f7d33bc	0.98907065
85	0x3f811152	1.0083411
86	0x3f7e2d91	0.9928828
87	0x3f7d7905	0.99012786
88	0x3f7d8054	0.9902394
89	0x3f7de6b8	0.99180174
90	0x3f7faf5d	0.9987696
91	0x3f7d89ca	0.99038374
92	0x3f7ea08e	0.99463737
93	0x3f80fcde	1.0077169
94	0x3f7e2eea	0.99290335
95	0x3f7e676b	0.99376553
96	0x3f808df5	1.0043322
97	0x3f8119f4	1.0086045
98	0x3f7f441d	0.9971331
99	0x3f7e608c	0.9936607

ln1.bias f4 [100]
0	0xbbc647d5	-0.0060510435
1	0x3c4939ed	0.012281877
2	0x3bca252a	0.006168981
3	0xbaae1e69	-0.0013284209
4	0xbbeadf9a	-0.0071677687
5	0x3a468fd5	0.0007574533
6	0xbb876b33	-0.004132652
7	0x3b82ade5	0.003988015
8	0x3ad10a93	0.0015948586
9	0xbbfa7922	-0.0076438347
10	0x3bd1b8ce	0.0064002043
11	0xbbb731c5	-0.00559065
12	0xbb56651e	-0.003271408
13	0x3bfb3666	0.007666397
14	0xbbc0a95b	-0.0058795637
15	0xbbb360db	-0.0054741926
16	0x3b95e53c	0.004574446
17	0xbbfd61ab	-0.00773259
18	0x3b5112ef	0.0031902154
19	0x3bb27d91	0.0054470976
20	0x3bd18db7	0.0063950676
21	0x3be58c94	0.0070052836
22	0x3bb09829	0.0053892327
23	0x3b988df6	0.004655595
24	0xbc0e6a7e	-0.008692382
25	0xbb1c7266	-0.0023871898
26	0x3bd66a17	0.0065434086
27	0xbb85453a	-0.0040670903
28	0xbbe80718	-0.0070809238
29	0x3b1d7c78	0.0024030488
30	0x3bd04dc4	0.0063569266
31	0x3ae3e8f6	0.0017388153
32	0xbba91d3b	-0.0051609552
33	0x3b086e08	0.0020817537
34	0x3bb74124	0.005592482
35	0x3bbfc5b5	0.005852426
36	0xbc1d1b9c	-0.009589102
37	0xbbd12984	-0.006383123
38	0xbbde2d20	-0.0067802817
39	0x3bacd940	0.0052749217
40	0x3bf94f53	0.007608333
41	0x39b2cc30	0.00034102937
42	0xbc3491e4	-0.011021111
43	0xbbc605cb	-0.006043171
44	0xbc05f6da	-0.00817653
45	0xbc144452	-0.009049492
46	0x3bb8e7f8	0.005642887
47	0x3c070d39	0.008242899
48	0xbbede05d	-0.007259412
49	0xbb90824b	-0.0044100634
50	0x3c10f024	0.0088463165
51	0xbbd16852	-0.00639061
52	0x3bb399ba	0.005480972
53	0xbbd8133d	-0.0065940903
54	0xbbdba716	-0.006703268
55	0xba7e5fe4	-0.000970362
56	0xbbc8d338	-0.006128695
57	0xbb9dc295	-0.0048144558
58	0xbbe108e6	-0.006867516
59	0xbbbdfb1b	-0.0057977564
60	0xbbd910dc	-0.0066243242
61	0xbbc4a8e1	-0.0060015772
62	0x3be648d3	0.0070277243
63	0xbc161e5a	-0.00916251
64	0x3be41459	0.0069604334
65	0xbbdfed19	-0.006833684
66	0xbc005461	-0.0078326175
67	0xbb3163b1	-0.0027067477
68	0x3bc55b77	0.0060228663
69	0xbbd35aea	-0.006450047
70	0x3be51c90	0.0069919303
71	0x3bbfb419	0.0058503267
72	0xbbe5b45c	-0.007010026
73	0xbbf98a74	-0.007615382
74	0x3af00769	0.0018312755
75	0xbbae9c5a	-0.005328697
76	0xbc0796d5	-0.008275707
77	0x3bb34758	0.0054711513
78	0x3badf7fa	0.005309102
79	0xbb9e899d	-0.004838182
80	0x3b8ba031	0.0042610397
81	0x3bf86452	0.0075803185
82	0xbc09ee82	-0.008418681
83	0x3ba51dc1	0.0050389473
84	0x3a97d577	0.0011584003
85	0xbc0a65a8	-0.008447088
86	0x3be80290	0.0070803836
87	0x3b2ae195	0.0026074399
88	0x3b69f7d0	0.0035700686
89	0xbb35ad26	-0.0027721613
90	0xbc1d79e7	-0.009611583
91	0x3be6bc12	0.0070414627
92	0x3b7fdabb	0.0039040286
93	0x3beee778	0.007290777
94	0x3be4f6cb	0.006987428
95	0xbba1dcff	-0.004939675
96	0xbbcb8d21	-0.0062118922
97	0xbc0cc37a	-0.008591527
98	0xbb9e9d35	-0.004840518
99	0x3b9af2d3	0.004728654

ln2.weight f4 [100]
0	0x3f7e6ddf	0.993864
1	0x3f7faa63	0.99869365
2	0x3f7e8ab4	0.99430394
3	0x3f7e1573	0.9925148
4	0x3f7e9838	0.9945102
5	0x3f7df4c3	0.992016
6	0x3f7de14e	0.9917191
7	0x3f815163	1.0102962
8	0x3f7e1815	0.99255496
9	0x3f804c8d	1.0023361
10	0x3f7f8d96	0.9982542
11	0x3f80e848	1.0070887
12	0x3f7df9ef	0.99209493
13	0x3f7fb4b6	0.9988512
14	0x3f80c92f	1.0061396
15	0x3f7f1cf5	0.9965356
16	0x3f7d67f4	0.98986745
17	0x3f7f6ca1	0.9977513
18	0x3f7e9e8e	0.99460685
19	0x3f7e5b3e	0.99357975
20	0x3f800c40	1.0003738
21	0x3f7c99e7	0.98672336
22	0x3f7e527c	0.9934461
23	0x3f80b3d2	1.0054877
24	0x3f815b3b	1.0105966
25	0x3f7e59ce	0.9935578
26	0x3f7ee3b7	0.99566215
27	0x3f80dde5	1.0067717
28	0x3f7fb312	0.99882615
29	0x3f7efe03	0.9960634
30	0x3f80165a	1.0006821
31	0x3f7f1e5f	0.9965572
32	0x3f7d61e6	0.98977506
33	0x3f80f2a3	1.0074047
34	0x3f7f12e2	0.9963819
35	0x3f7e41bf	0.9931907
36	0x3f8127d7	1.0090283
37	0x3f80a5ec	1.0050635
38	0x3f8053e8	1.0025606
39	0x3f805dd6	1.0028636
40	0x3f7df7cf	0.9920625
41	0x3f80be68	1.0058107
42	0x3f814e81	1.0102082
43	0x3f7edfa4	0.9956
44	0x3f80f9ab	1.0076193
45	0x3f7e4ece	0.99338996
46	0x3f7da378	0.9907756
47	0x3f80fe94	1.0077691
48	0x3f811cdc	1.0086932
49	0x3f7e0752	0.9922992
50	0x3f812414	1.0089135
51	0x3f7e7c9a	0.99408877
52	0x3f80c66a	1.0060551
53	0x3f80ba81	1.0056916
54	0x3f7edfb1	0.99560076
55	0x3f8028f2	1.0012496
56	0x3f80bbd7	1.0057324
57	0x3f7ddb3e	0.9916266
58	0x3f7e4daa	0.99337256
59	0x3f7e4b17	0.9933333
60	0x3f80d1b4	1.0063996
61	0x3f80ebfb	1.0072016
62	0x3f7e0f79	0.9924236
63	0x3f8100a5	1.0078322
64	0x3f7eadef	0.9948415
65	0x3f7eca10	0.9952707
66	0x3f810e5a	1.0082505
67	0x3f7ff51b	0.99983376
68	0x3f81055e	1.0079763
69	0x3f80a3c1	1.0049974
70	0x3f7e15a7	0.9925179
71	0x3f7eb641	0.9949685
72	0x3f7e0b3a	0.9923588
73	0x3f81527d	1.0103298
74	0x3f7feda2	0.99971974
75	0x3f80f66c	1.0075202
76	0x3f80fa95	1.0076472
77	0x3f7ec4f7	0.99519295
78	0x3f7e4f7c	0.99340034
79	0x3f7e4407	0.9932255
80	0x3f8081ec	1.0039649
81	0x3f811930	1.0085812
82	0x3f814a17	1.0100735
83	0x3f7facc4	0.99872994
84	0x3f7e05a0	0.99227333
85	0x3f814899	1.010028
86	0x3f7e46cc	0.9932678
87	0x3f7e440a	0.9932257
88	0x3f7d8f3f	0.990467
89	0x3f7d7ceb	0.99018735
90	0x3f80be37	1.0058049
91	0x3f7e47d6	0.9932836
92	0x3f810b1e	1.0081518
93	0x3f812146	1.0088279
94	0x3f7e6830	0.9937773
95	0x3f7c3420	0.98517036
96	0x3f80f8f3	1.0075973
97	0x3f80a1c1	1.0049363
98	0x3f7e1320	0.9924793
99	0x3f80dd9c	1.006763

ln2.bias f4 [100]
0	0x3bd45ed5	0.0064810314
1	0xba1e92b8	-0.00060490845
2	0xbbb5b829	-0.0055456352
3	0xba47b5b9	-0.00076183263
4	0xbbf03006	-0.0073299436
5	0xbb8cde1b	-0.004298938
6	0x3b1008cd	0.0021977902
7	0xbc2d4f1a	-0.010577941
8	0xbb95edfb	-0.0045754886
9	0x3bc98156	0.0061494512
10	0x3be4e997	0.006985854
11	0xbbddf69a	-0.006773782
12	0xbb8fedd6	-0.004392366
13	0x3bde0944	0.006776007
14	0xbbc954d6	-0.0061441464
15	0xbbb493e7	-0.0055107954
16	0x3aa50453	0.001258979
17	0x3aac824b	0.0013161389
18	0x3ba40b87	0.005006257
19	0x3bce68c0	0.0062991083
20	0x3bca6d37	0.00617757
21	0x3bb460c1	0.005504698
22	0x3b61cb1b	0.0034453336
23	0x3bcdcc44	0.006280454
24	0xbc2d44a8	-0.010575451
25	0xbb7be31c	-0.0038434928
26	0x3bd7b47a	0.006582794
27	0xbbdf0f9d	-0.006807281
28	0xbbe53593	-0.006994912
29	0xbc08e868	-0.008356191
30	0x3bc1bc15	0.0059123137
31	0xbab43366	-0.0013748228
32	0x3bf79ed9	0.007556778
33	0xbbf8257b	-0.0075728274
34	0x3bbe70bb	0.0058117784
35	0x3bb44efd	0.00550258
36	0xbc0ed521	-0.008717806
37	0xbbcd52d1	-0.006265976
38	0xbb64539b	-0.0034839872
39	0x3b96bca0	0.0046001226
40	0x3c041980	0.00806272
41	0xbbd9e9c6	-0.0066501824
42	0xbc1d2603	-0.009591582
43	0x3b241a78	0.002504019
44	0xbbfa9318	-0.0076469295
45	0xbbe8f0e4	-0.0071087945
46	0xbc061059	-0.0081826085
47	0x3c054276	0.008133521
48	0xbbecd60a	-0.007227664
49	0x3b260e95	0.0025338281
50	0x3c088485	0.008332376
51	0xbbf12bfb	-0.007359979
52	0x3beba614	0.007191429
53	0xbbb9f535	-0.005674983
54	0xbbe328a3	-0.0069323345
55	0xbb19a6e9	-0.0023445433
56	0xbbc40157	-0.005981605
57	0x3be8b6d5	0.0071018734
58	0x3bdb0aee	0.0066846525
59	0xbb5cf425	-0.0033714857
60	0xbbd08a2e	-0.0063641286
61	0xbc04ce15	-0.008105774
62	0xbb9f46a3	-0.0048607155
63	0xbc0022a5	-0.00782076
64	0x3bd36b8a	0.0064520286
65	0xbbef5179	-0.0073034135
66	0xbc01e95e	-0.007929174
67	0x3c1802e5	0.009278034
68	0xbc0999f9	-0.008398526
69	0xbbae47f6	-0.005318637
70	0x3bf793c9	0.007555459
71	0x3bfbde02	0.0076863775
72	0xbc0891e0	-0.008335561
73	0xbc2a48d7	-0.010393343
74	0x39847509	0.000252642
75	0xbbd0f7c8	-0.006377194
76	0xbbfd4030	-0.007728599
77	0xbbac1df3	-0.0052525937
78	0x3bcf5e74	0.0063283984
79	0xbaa99b28	-0.0012939917
80	0xbb86dc92	-0.0041156495
81	0x3bea92a7	0.0071585956
82	0xbc239200	-0.00998354
83	0x3b9c878a	0.0047768997
84	0xbc420879	-0.01184284
85	0xbc176c1a	-0.009242082
86	0x3bed9b14	0.007251153
87	0xbbbb4df2	-0.005716079
88	0xba818be5	-0.0009883611
89	0x3c5d7eeb	0.013519029
90	0xbc2f2fca	-0.010692546
91	0x3bd9a3b4	0.0066418294
92	0xbc26333c	-0.010144051
93	0x3c074fd2	0.008258777
94	0x3bd217df	0.006411537
95	0xba38a3da	-0.0007043459
96	0xbbdf0edb	-0.006807191
97	0xbbb67031	-0.0055675735
98	0xbb4c2b02	-0.0031153564
99	0x3bd780ad	0.0065766186

ln3.weight f4 [100]
0	0x3f8071fd	1.0034786
1	0x3f7de14f	0.9917192
2	0x3f802fa5	1.001454
3	0x3f800ee2	1.0004542
4	0x3f817d8a	1.0116436
5	0x3f7e1c50	0.9926195
6	0x3f7eb86d	0.9950016
7	0x3f8106ab	1.008016
8	0x3f810cee	1.0082071
9	0x3f7f0039	0.99609715
10	0x3f7e82df	0.99418443
11	0x3f7e4ab4	0.9933274
12	0x3f8231d3	1.0171455
13	0x3f7ee8d0	0.99573994
14	0x3f81314f	1.0093173
15	0x3f810b96	1.0081661
16	0x3f81b6bd	1.0133892
17	0x3f7e97b1	0.9945021
18	0x3f7e7c65	0.9940856
19	0x3f8190e4	1.0122342
20	0x3f7e7776	0.9940103
21	0x3f8178aa	1.0114949
22	0x3f7e9e34	0.9946015
23	0x3f802ff6	1.0014637
24	0x3f7e03a4	0.99224305
25	0x3f7ebc93	0.9950649
26	0x3f809f2a	1.0048573
27	0x3f817ab1	1.0115567
28	0x3f7fb765	0.9988921
29	0x3f818724	1.0119367
30	0x3f81b77d	1.0134121
31	0x3f7f6c0e	0.99774253
32	0x3f801bac	1.0008445
33	0x3f7dfb51	0.99211603
34	0x3f8156bd	1.0104595
35	0x3f8025af	1.00115
36	0x3f802649	1.0011684
37	0x3f7fac33	0.9987213
38	0x3f7f38be	0.99695957
39	0x3f7f39dd	0.9969767
40	0x3f8143af	1.009878
41	0x3f7ed29d	0.9954012
42	0x3f81bd32	1.0135863
43	0x3f7e0533	0.99226683
44	0x3f7ecdcf	0.9953279
45	0x3f81a0bf	1.0127181
46	0x3f7e2529	0.9927545
47	0x3f815b0e	1.0105913
48	0x3f81ce31	1.014105
49	0x3f808aea	1.0042393
50	0x3f80efc1	1.0073167
51	0x3f7e1325	0.9924796
52	0x3f815e70	1.0106945
53	0x3f819838	1.0124578
54	0x3f806782	1.0031588
55	0x3f815a25	1.0105635
56	0x3f804d87	1.002366
57	0x3f7fd495	0.9993375
58	0x3f819189	1.0122539
59	0x3f8045da	1.0021317
60	0x3f8123c9	1.0089046
61	0x3f815dd5	1.010676
62	0x3f81bce2	1.0135767
63	0x3f817a8d	1.0115525
64	0x3f81677a	1.0109704
65	0x3f810f8e	1.0082872
66	0x3f81e978	1.0149374
67	0x3f7e3ecc	0.9931457
68	0x3f816a83	1.011063
69	0x3f7f7e05	0.99801666
70	0x3f81e32c	1.0147452
71	0x3f7edc19	0.9955459
72	0x3f81a718	1.0129118
73	0x3f815063	1.0102657
74	0x3f80930d	1.0044876
75	0x3f81b2b6	1.0132663
76	0x3f802aba	1.0013039
77	0x3f7f536b	0.9973666
78	0x3f8083f0	1.0040264
79	0x3f7eb52a	0.99495184
80	0x3f817b02	1.0115664
81	0x3f7e98ea	0.9945208
82	0x3f7ed488	0.99543047
83	0x3f80f77b	1.0075525
84	0x3f804360	1.0020561
85	0x3f8110b1	1.0083219
86	0x3f8171c7	1.0112847
87	0x3f81be5f	1.0136222
88	0x3f7f6db9	0.997768
89	0x3f7f3899	0.99695736
90	0x3f815679	1.0104514
91	0x3f81448a	1.0099041
92	0x3f81f5f0	1.0153179
93	0x3f819aed	1.0125405
94	0x3f7dfdb2	0.99215233
95	0x3f7e6c3f	0.9938392
96	0x3f80754a	1.0035794
97	0x3f7e49de	0.9933146
98	0x3f814c01	1.010132
99	0x3f81947f	1.0123442

ln3.bias f4 [100]
0	0xbab6576b	-0.0013911551
1	0x3c2056a8	0.009786285
2	0x3c1d6abd	0.009607968
3	0xbc5ce155	-0.013481458
4	0x3c1f9052	0.0097389985
5	0xbc137fc7	-0.009002632
6	0x3abe2124	0.0014505726
7	0x3c2df949	0.010618516
8	0x3c11e3ae	0.008904381
9	0x3bf15d8f	0.0073658894
10	0xbc2cd9fa	-0.010550017
11	0xbb9cec38	-0.0047889017
12	0x3c2d8524	0.010590825
13	0xbbf6f3b5	-0.0075363764
14	0x39312834	0.00016895012
15	0xbc22d8a5	-0.009939347
16	0xbc34188e	-0.010992182
17	0x3bc3aeeb	0.0059717796
18	0x3c0f54a5	0.008748208
19	0x3c2501ee	0.010071261
20	0x3c11bdc6	0.008895343
21	0xbc41d82e	-0.011831326
22	0xbc129be5	-0.008948301
23	0x3bcea98a	0.0063068317
24	0x3c22f9e0	0.00994727
25	0xbbc8603e	-0.0061149886
26	0x3bc4e47e	0.0060086837
27	0x3c2f15ca	0.010686347
28	0x3c24e9a5	0.010065471
29	0x3c41c533	0.011826801
30	0x3c27fc90	0.010253087
31	0xb913e0e5	-0.00014102792
32	0xbc29292d	-0.0103247585
33	0x3c01c28c	0.007919919
34	0xbc2b4ded	-0.010455591
35	0xbc2885fa	-0.010285849
36	0xbc420101	-0.01184106
37	0x3c083d10	0.00831534
38	0xbaab018f	-0.0013046729
39	0x3c1791b6	0.009251049
40	0xbc40de6a	-0.011771778
41	0x3bec6cf4	0.0072151367
42	0x3c2065d1	0.0097899
43	0x3b60d87e	0.0034308727
44	0x3b597292	0.0033179861
45	0xbc294ef8	-0.010333769
46	0x3bfceff1	0.007719033
47	0x3c31476b	0.01082025
48	0xbc1e959a	-0.0096792225
49	0x3bd0aef6	0.006368513
50	0xbc05730a	-0.008145103
51	0x3ba8c7df	0.0051507796
52	0xbc2b225f	-0.010445206
53	0xbc2be227	-0.010490931
54	0x3c21a9b7	0.009867123
55	0x3c2f4fdc	0.010700192
56	0x3c081749	0.008306333
57	0x3a5f98fa	0.000852957
58	0xbc22c80f	-0.009935393
59	0x3c157b20	0.009123594
60	0x3c1e6157	0.009666762
61	0xbc299be6	-0.0103521105
62	0xbc210d67	-0.0098298555
63	0x3c1b409b	0.009475852
64	0x3c3a521c	0.011372115
65	0x3bbfe119	0.005855691
66	0x3c042867	0.008066273
67	0x3c1a1156	0.009403547
68	0x3c18320e	0.009289278
69	0x3c28f0cd	0.010311318
70	0x3c3c991a	0.011511112
71	0x3c0dace4	0.008647177
72	0x3c2ecabe	0.010668455
73	0xbc1b4f56	-0.009479364
74	0x3c0de80a	0.008661279
75	0xbc17bda1	-0.00926152
76	0xbc03d04d	-0.008045268
77	0xbc14ef7c	-0.009090301
78	0xbc1a9909	-0.0094359005
79	0xbc01251a	-0.007882381
80	0xbc2d5ffc	-0.0105819665
81	0x3c0101cb	0.007873963
82	0x3c1fabfc	0.009745594
83	0xbc1133ee	-0.008862479
84	0xbc0baf73	-0.008525717
85	0x3c1ac566	0.0094464775
86	0x3c2838ec	0.0102674775
87	0xbc22b937	-0.009931854
88	0x3c0dc8a4	0.0086537935
89	0xbc30b4be	-0.01078528
90	0x3c312db3	0.010814118
91	0xbc21983a	-0.009862954
92	0xbc2fc50d	-0.010728133
93	0x3c586325	0.013207232
94	0xbb9ae9b1	-0.004727565
95	0xbc239566	-0.00998435
96	0x3bc397d7	0.0059690285
97	0x3bfdc8ec	0.007744899
98	0xbc1fad54	-0.0097459145
99	0xbc345252	-0.011005955
