GNNUI/bld/model/best_model_strava_total_trip_countTTTbinaryT0.10.9TTTTTFZINB.pth (torch, 702894 bytes, 18 tensors)

GNN1.Theta1 f4 [1122, 100]
000000 1d cf 9a 3d b8 e2 aa 3d ad 2c b6 bc 62 5a be 3d
       0.07559035 0.083440244 -0.0222381 0.09294583
000010 5b 1d be bc c5 92 b8 3c 73 6a 47 bd 46 47 76 3d
       -0.023207357 0.022530923 -0.048685502 0.060126565
000020 a6 31 b8 3d 29 f3 98 bd ce 68 ae 3d 2d 43 a0 3c
       0.08993845 -0.07468254 0.08516084 0.019563282
000030 3f 49 9b 3d ad 31 74 3c 8d 18 42 3d 70 25 83 bc
       0.0758233 0.014904422 0.047386695 -0.016009063
000040 20 12 99 3d a1 72 57 3c b1 a3 44 bd 97 78 dc 3c
       0.0747416 0.013149888 -0.04800767 0.02691297
000050 93 63 44 bd 55 b3 24 bc d8 09 2b bd 3a 14 8b 3d
       -0.047946524 -0.010052522 -0.041757435 0.06790967
000060 a8 d3 9e bd dc 43 34 bd 7d 88 f9 bc 65 ae 6f bd
       -0.07755214 -0.04401003 -0.03046059 -0.058515925
000070 c1 ee 10 3c b9 8e c6 bd 00 73 b5 3d 4f e9 a9 bd
       0.008845986 -0.09695191 0.08859825 -0.08296453
000080 73 3f 9a 3d 90 ef 92 3c 84 3d 00 bd 8b 48 80 3d
       0.07531633 0.017936498 -0.031308666 0.062638365
000090 0c 75 61 3c f9 8f a0 3d ad 2c 4e 3c 0a 84 f7 bc
       0.013760816 0.078399606 0.012583894 -0.030214328
0000a0 a0 ac d5 3c ac fc e6 bc 2b 78 2b 3d 59 71 b9 3d
       0.02608329 -0.028196655 0.041862648 0.090548225
0000b0 cf 15 73 3d 18 47 35 bd bd ff 71 3d 9e 8f 84 3c
       0.05934697 -0.044257253 0.05908178 0.016181763
0000c0 5e 86 49 3d f1 43 7d bd c3 2d c9 bd 6a e1 1a bd
       0.04920041 -0.061832372 -0.098231815 -0.037812628
0000d0 09 bc a2 bd a6 f7 a2 3d a5 af e1 3c 70 a9 29 3d
       -0.07946021 0.079573914 0.027549574 0.041421354
0000e0 37 1b f8 3c 02 8a 53 bb 94 c8 a4 3d 1e ed 8d bd
       0.030286415 -0.0032278304 0.0804607 -0.06929992
0000f0 02 22 01 3c 6c 6f 8e bd e8 3a f6 3c 1f e7 15 bd
       0.007881643 -0.06954846 0.030057386 -0.036597367
000100 84 a2 ef 3c 6d ad be bc 81 0e a7 3d 2d 94 6d bd
       0.029252298 -0.023276055 0.08157063 -0.05800264
000110 32 e9 6d bd b9 a3 6f bd 6a e7 bb 3d 51 c3 0f 3d
       -0.05808372 -0.058505747 0.09174998 0.035098378
000120 a8 e1 c1 3d 7d 10 a6 bd 2b 87 ce bd 20 39 a5 bd
       0.09466869 -0.08108614 -0.10084375 -0.08067536
000130 ba da 88 bd 43 f1 2a 3d ea 5e 19 3d c2 35 ac 3d
       -0.06682344 0.04173399 0.037444033 0.08408691
000140 eb 43 4e bd f3 85 8f bd 1c 0e 54 3d 47 c1 20 bd
       -0.05035774 -0.07007971 0.05177127 -0.039246824
000150 53 e7 72 3d 0f ea b6 bc 7e 9b 70 3d 78 fd a2 bd
       0.05930264 -0.022328405 0.05874204 -0.079585016
000160 20 1e 4d bd 89 70 04 3d 3e ea b8 3c d3 f8 c5 bc
       -0.050077558 0.032333884 0.022572633 -0.0241665
000170 0c cb 74 3d 7e 42 88 3d 71 77 95 bd 22 5d 54 bd
       0.059763953 0.066533074 -0.07298172 -0.05184663
000180 b1 90 bb 3d d7 bb 03 bd b4 74 0b bd 4f a0 c3 bd
       0.09158457 -0.03216156 -0.034046844 -0.09552061
000190 44 17 6d bd 11 e9 da 3c 1d 1c 43 bc 3a d2 91 bd
       -0.057883516 0.026722463 -0.011908558 -0.07120176
0001a0 d2 26 ba 3a c9 b4 8a bd 6b c0 ad bd 5a 42 5b bd
       0.0014202243 -0.06772763 -0.084839664 -0.053530075
0001b0 b8 63 b0 bd 48 3a 85 bd ae 4f cd 3d 14 e9 a0 3c
       -0.0861277 -0.06505257 0.10024963 0.01964239
0001c0 46 da 07 3d 7a 4e bc bd 40 f9 83 bd 7c 2c 10 bd
       0.033167146 -0.09194656 -0.06444025 -0.035198674
0001d0 d3 66 77 3c ef 8c b7 bd e6 13 34 bd 1f 21 78 bd
       0.015100199 -0.08962428 -0.04396429 -0.06057846
0001e0 d6 75 cf ba 94 ee 13 bd 25 c7 09 bc 21 d8 87 bd
       -0.0015827965 -0.036116198 -0.008409296 -0.0663302
0001f0 b7 b0 89 bd ce 88 69 bd 33 f9 14 bd 95 80 9e bd
       -0.06723159 -0.057015233 -0.036370467 -0.07739369
000200 fb 5f af 3d af 17 94 bc 1a ac ac 3d d5 92 02 3d
       0.08563229 -0.0180777 0.08431263 0.03187831
000210 38 26 b1 bd 63 f1 8e 3d 52 36 e9 bc 15 8f 17 bd
       -0.08649868 0.069796346 -0.028468285 -0.037001688
000220 b8 02 ad bd e3 47 cc bd fc f4 f6 3c 65 cd a9 bc
       -0.08447784 -0.09974649 0.030146115 -0.020727823
000230 31 50 1a 3d 61 64 a5 bd 9d b7 99 3d 26 13 94 bd
       0.037674133 -0.080757864 0.075057246 -0.07230215
000240 51 da 80 bc 18 e6 9c 3c e5 1d 59 3d 7e 12 a2 3d
       -0.015729101 0.019152686 0.053007025 0.07913683
000250 7e 05 b8 3d 11 2b a5 bd a6 2a cd 3c 24 ea 29 bd
       0.089854226 -0.08064855 0.02504475 -0.04148306
000260 de b5 5e bc c5 94 9d bd e1 a4 b8 3d 25 50 96 bd
       -0.013593165 -0.07694391 0.09015823 -0.07339505
000270 39 b1 5b 3d 3c a1 0a 3d 23 00 0c 3d b3 9b 57 bd
       0.05363581 0.03384517 0.034179818 -0.05263872
000280 45 10 bd 3d 8c a6 ab 3c 40 e2 3d 3c 2d f0 b8 bd
       0.09231619 0.02095344 0.011589587 -0.09030185
000290 57 f0 26 3d 68 e0 8e bc 4b 7c 43 bd 3f 71 af 3d
       0.04075655 -0.01744099 -0.047725957 0.08566522
0002a0 95 63 c0 3c 74 fe 5c bd ac fd 49 bd 34 30 85 bb
       0.023484984 -0.053953603 -0.049314186 -0.004064584
0002b0 5d b6 5d 3d 79 6b c4 bc ae e5 6f bd 35 89 14 bd
       0.054128993 -0.023977028 -0.05856865 -0.036263663
0002c0 a6 ea 96 bd 68 25 17 3d f3 7d a1 3d bd 09 be bd
       -0.073689744 0.036900908 0.07885351 -0.09279201
0002d0 64 40 c0 3c ed 7c 4c 3d 90 28 89 3c 52 0e 0d bd
       0.023468204 0.049923826 0.016742975 -0.034437485
0002e0 95 d4 51 3d 57 e5 5b 3d 49 8a 1e 3d 2d b3 a0 bc
       0.051228125 0.053685512 0.038706098 -0.019616688
0002f0 77 3e cd bc a6 ed 4c 3c af 25 85 bc d0 44 ea bc
       -0.0250542 0.012507832 -0.01625332 -0.028597265
000300 f4 a9 7f 3d 89 1c ad 3d ef c1 20 bc 31 8d aa bc
       0.06241794 0.08452708 -0.009811862 -0.020819278
000310 fe 55 be 3a 5c b3 96 bb eb a6 d0 3c 9d 7c eb 3c
       0.0014521477 -0.004599018 0.025470218 0.028745944
000320 09 46 bb bd af 05 10 bd 92 1c af 3d fd 3d 25 3d
       -0.091442175 -0.03516167 0.08550371 0.04034232
000330 1a 4e c1 bb 8a 92 74 bd 6a 98 7a bd 93 4e b4 bd
       -0.005899203 -0.059710063 -0.06118051 -0.08804049
000340 e4 9c ff bc 20 ad 04 3d 20 2d 83 3d 08 34 40 3d
       -0.031202741 0.032391667 0.06405091 0.04692462
000350 6e 37 b0 bd 56 e7 70 bd 1d 4c 6e bc f7 31 c2 3d
       -0.086043224 -0.05881437 -0.014544514 0.09482186
000360 c4 35 64 3c e8 84 e1 bc 9a dd 25 3d 7f ec 1e bd
       0.013928834 -0.027529195 0.04049454 -0.03879976
000370 f9 5d 88 bd be b8 97 3d 89 4e 40 bd 30 7c 98 bc
       -0.06658549 0.07408284 -0.046949897 -0.018613905
000380 3c da c8 bd b9 c7 8b 3d 86 c7 96 3d 17 90 1b 3d
       -0.0980725 0.068252034 0.07362275 0.03797921
000390 3d 25 8b bd c2 80 c6 bd 0a df a9 bd b4 31 9a 3d
       -0.06794212 -0.09692527 -0.082944945 0.07529011
0003a0 68 33 3d 3d e2 8d ad 3d 9a ab 52 3d 66 3c da 3c
       0.046191603 0.084743276 0.051433183 0.026640128
0003b0 32 91 20 bb a7 6d 9c bd bf 52 ac bd cd 45 bd bd
       -0.0024500606 -0.07638102 -0.0841422 -0.09241829
0003c0 6b 85 22 3d af bd 43 bd ea 31 9e bc 4e 35 67 bd
       0.03967802 -0.04778832 -0.01931091 -0.05644732
0003d0 24 ad 88 bc 79 b2 93 bd 50 fd 82 bd c5 56 01 3d
       -0.016684122 -0.07211775 -0.06395972 0.03157689
0003e0 a5 a2 fd bc ea 4e 77 3d 23 e7 03 bd 23 1a 93 bd
       -0.030961344 0.060377993 -0.03220285 -0.071827196
0003f0 40 1f a6 bc 24 22 4f bd 02 1d 01 bd fd f7 c2 bd
       -0.020278573 -0.05056967 -0.031521805 -0.09519956

GNN1.bias f4 [100]
000000 83 08 fd 3b a8 87 98 3d 34 6a ab 3c a5 6c 27 3d
       0.007721962 0.074477494 0.020924665 0.040875096
000010 8a cc 53 3d 8f 0d bd bb 1a d1 4a bd 42 72 ca bd
       0.051708736 -0.0057694386 -0.04951582 -0.09885074
000020 9f 6d 21 bd ac 38 7b 3d 42 d5 54 3d b0 87 b6 3d
       -0.039411183 0.061333343 0.05196119 0.08912599
000030 58 e9 cc bd 0b d9 59 bd 43 65 5d bc e2 51 5d 3d
       -0.10005444 -0.053185504 -0.013512912 0.054033168
000040 1e 0d c8 3d aa 91 22 3d 1d ed 1a bd 29 fc 88 bd
       0.09768127 0.039689697 -0.037823785 -0.06688721
000050 9d a1 e5 3c 6f a5 78 bd db 56 69 bd 9c e4 15 bc
       0.028031165 -0.060704645 -0.056967597 -0.009148743
000060 95 2a ad 3d 9e a7 c2 bd 40 22 9a 3c 71 49 8f ba
       0.084553875 -0.09504627 0.01881516 -0.0010931921
000070 51 1b 4a bb 4e 6a 99 bd be de 98 bd 7f 5f cb bd
       -0.0030839036 -0.07490979 -0.0746436 -0.09930324
000080 a6 94 9a bc 76 30 98 bd 23 c9 52 bd 01 49 90 bd
       -0.01886971 -0.07431118 -0.05146135 -0.070451744
000090 6f e1 bf bb f8 3f 9f 3d b4 3a 18 bc eb 01 2b 3d
       -0.005855731 0.07775873 -0.00929134 0.041749876
0000a0 8c 60 c3 3d 85 02 72 bd 84 83 cb bd 7d 96 65 3d
       0.09539899 -0.059084434 -0.09937194 0.05605172
0000b0 b3 cc 58 bc c8 99 76 bd 5b 5d 0e 3d 8f 91 a9 3d
       -0.013232398 -0.06020525 0.034757 0.08279716
0000c0 f4 47 a2 bd 5a e1 b8 bd ec a4 66 bd 6e 81 b9 bc
       -0.0792388 -0.090273574 -0.056309626 -0.022644725
0000d0 75 18 9a 3d 65 57 46 bd b5 47 8b bd 75 41 b4 3d
       0.07524196 -0.04842319 -0.068007864 0.088015474
0000e0 52 89 a6 bd e7 1a 25 3c 03 1f 0f 3d 57 6b 07 3c
       -0.081316605 0.010077215 0.034941684 0.008265338
0000f0 f9 4b b3 bc f0 a5 c5 3d a7 e0 5d bb 5e 40 48 bd
       -0.021886813 0.09650791 -0.0033855827 -0.04888951
000100 85 b6 4c bd 64 12 d6 bc c8 16 a8 3d 94 72 b0 3d
       -0.04997875 -0.026131816 0.0820747 0.08615604
000110 f6 00 d1 3c ba 92 87 3d f9 91 ac 3d 52 71 b2 3c
       0.025513154 0.06619783 0.084262796 0.021782551
000120 cc 04 5f 3d 27 21 6e bd 3b ff c2 3d 86 71 77 bc
       0.054447934 -0.058137085 0.095213376 -0.01510275
000130 cb 7c d4 3a 9a fa 5f bc 14 c6 9a 3d 13 87 aa 3d
       0.0016211508 -0.013670588 0.07557312 0.083265446
000140 5f 1c c1 3d 6d d7 83 bd e6 ea a4 3d 2a db a3 bd
       0.094292395 -0.064375736 0.08052616 -0.080007866
000150 ca a5 3f bc 09 e7 9d bd d3 10 f7 3c d4 9c bb bd
       -0.011697242 -0.07710082 0.03015939 -0.09160772
000160 a9 df 1a bd 73 f2 8a 3c 0d 46 2f 3d 94 0b 71 3d
       -0.037810955 0.016961312 0.042791415 0.058848932
000170 f1 81 a9 3d f1 5f 0d 3d 74 98 f0 bc e0 3e 6c bd
       0.082767375 0.034515325 -0.02936957 -0.05767715
000180 e7 80 b7 bd ce 33 d7 bc 1c 88 49 bd c6 ca dd 3b
       -0.08960133 -0.02626982 -0.04920207 0.0067685572

GNN2.Theta1 f4 [300, 100]
000000 50 25 7e 3d e3 6d 8d 3c 10 39 b3 bd ea ad 9a 3c
       0.062047303 0.017264312 -0.08751118 0.018881757
000010 8d 23 63 bb 2c 53 bb bc 6d d0 40 3d 7f c4 a7 3c
       -0.003465864 -0.022866808 0.04707377 0.020479439
000020 c3 5c 28 bd 2c 28 1e 3d 01 65 0a bd 68 30 21 bd
       -0.04110409 0.03861253 -0.03378773 -0.039352804
000030 42 0f 1d 3b 41 a3 ab 3c 10 e4 be 3d 36 3b 5d 3d
       0.0023965393 0.020951869 0.09320843 0.054011546
000040 39 c9 bd bd 43 09 f6 bc 6b 7f f1 3b 8a f6 97 bd
       -0.09266896 -0.030033713 0.0073699257 -0.074200705
000050 12 b9 46 bd a1 7b f1 3c c3 ad be 3c 03 42 42 bc
       -0.04851634 0.029477896 0.023276215 -0.011856559
000060 b4 5a 94 3c f7 55 d5 bc 7b 0a 97 bd e6 fe a3 bd
       0.018109657 -0.026041968 -0.07375046 -0.080076024
000070 2e 6f 61 3c 3e 69 7f bd dd bc b1 3d 16 ac 57 bd
       0.013759417 -0.062356226 0.08678601 -0.05265435
000080 ca e1 8e 3a 2d 89 8c bd 6e 60 e9 bc 6d 5f 10 bd
       0.0010901031 -0.06862102 -0.028488364 -0.035247255
000090 60 2f 2b bc 34 10 85 3d 2a ea ba 3d 11 dd 9b bd
       -0.010448307 0.06497231 0.091266945 -0.076105244
0000a0 68 56 84 3d ef 87 a5 bd 91 d6 8b bd 36 b5 bf 3d
       0.06461793 -0.08082568 -0.06828035 0.09360735
0000b0 e8 c5 a2 3c 51 1a e9 bb b6 95 82 3d 9b c2 c0 bd
       0.01986976 -0.007113733 0.06376211 -0.09412118
0000c0 33 11 a4 bc 87 d8 88 3c f1 9b 47 bd da 5a 53 bd
       -0.020027732 0.01670481 -0.0487327 -0.051600315
0000d0 a3 b3 1a 3d ac c1 cc bd 56 4f 11 3d 25 c8 15 bd
       0.03776897 -0.099978775 0.03547605 -0.036567826
0000e0 8a be cc bc 6c 2a 85 bd 24 b4 e6 bc 05 36 78 3d
       -0.0249932 -0.06502232 -0.02816207 0.060598392
0000f0 03 eb f0 bc 6b 8c eb bc 28 91 b0 3c 16 8e c8 bc
       -0.029408937 -0.02875348 0.02155359 -0.024481814
000100 6d 01 91 bd 14 c4 30 3d 73 b0 bf 3a 94 2d 66 3d
       -0.0708035 0.043155745 0.001462473 0.05619581
000110 c1 06 d8 bb 19 c7 57 bd 07 52 bc 3d 20 b9 cf 38
       -0.006592602 -0.05268011 0.09195333 9.9050114e-05
000120 27 18 8b bc 88 97 5e bc 99 3c 69 bd 0c 27 35 bd
       -0.01697929 -0.013585933 -0.056942556 -0.04422669
000130 14 ba a1 3d 02 f3 0f 3d 02 6a 4e 3d 10 d8 47 bc
       0.0789682 0.03514386 0.050394066 -0.012197509
000140 83 b4 d7 ba 81 f7 9b 3d 6e fc 9b 3d f2 5c 96 3d
       -0.0016456995 0.07615567 0.076165065 0.07341947
000150 77 d9 9e 3d 01 3a 06 bd 67 95 32 bb 47 b0 8a 3c
       0.07756322 -0.03277016 -0.0027249695 0.016929759
000160 63 d2 28 bd bb 96 aa 3b 1d 40 7b 3d ba c7 92 3d
       -0.041216265 0.0052059568 0.06134044 0.07167001
000170 91 ed 7d bd cf c1 c9 3d eb 70 84 bd 80 77 24 3b
       -0.06199414 0.09851419 -0.0646685 0.0025095642
000180 46 91 18 bd ca 2d ce 3d 10 47 86 bd c1 a9 91 3d
       -0.03724792 0.10067327 -0.06556523 0.07112456
000190 c1 05 0d bd 24 ac 74 bc 6c 7e 58 bd 96 f7 87 3d
       -0.034429315 -0.01493362 -0.05285494 0.0663902
0001a0 22 00 38 bd 47 f1 a7 bc b0 73 60 bc b6 eb a6 3d
       -0.044922 -0.020500792 -0.013699457 0.08150427
0001b0 74 13 51 bb 23 9d 41 bd 36 db 94 bc 9e ba 81 bd
       -0.0031902464 -0.047268998 -0.018170934 -0.063344225
0001c0 26 49 62 3d eb f0 74 bb 27 76 c1 3d 3e 05 c7 bd
       0.05524554 -0.0037375044 0.09446364 -0.09717797
0001d0 34 32 80 bd 2e 1c 87 bd 89 f2 6c bd 25 30 c7 3c
       -0.062595755 -0.06597172 -0.057848487 0.02431495
0001e0 f5 06 74 bd 32 87 d4 bc 52 8c 6c 3d 9c bb 1d 3d
       -0.059576947 -0.025943372 0.057751007 0.038508996
0001f0 61 5d 46 3d 24 38 b7 bd 90 7f 70 3b a1 2a 7a 3c
       0.048428897 -0.08946255 0.0036697127 0.015268953
000200 86 dd e2 3c 7c af b8 3d 47 d0 96 3a b2 b6 4c 3d
       0.027693521 0.09017846 0.0011506163 0.04997892
000210 97 88 bc bd b8 cf f7 bc fb aa 8b 3c 99 a0 a4 3c
       -0.0920574 -0.030250415 0.017049303 0.02009611
000220 d7 0a 98 bd c4 5b 4a 3d ae 34 2a bd 2f 2b 6a bd
       -0.074239425 0.04940392 -0.041554146 -0.05717009
000230 50 a4 0c bd 1e 8e 40 3c 5c 34 60 3d 33 e5 c7 bd
       -0.034336388 0.011752633 0.054737434 -0.09760513
000240 b5 0b 9c 3d e5 37 81 3d c5 f4 00 3d 99 be b0 bd
       0.076194204 0.06309489 0.03148343 -0.086301036
000250 05 ba 9d 3d 85 86 94 3d 76 4c bc 3d 61 f8 85 3d
       0.07701496 0.0725222 0.09194271 0.06541515
000260 2e 49 13 3d 48 a2 81 3d 0d d1 7a bd 8c 3d 27 3d
       0.03595846 0.06329781 -0.061234523 0.04083018
000270 cd a7 a7 3c 7b 51 b5 3d 91 49 42 3d fc 7d bf bc
       0.020465756 0.08853432 0.04743344 -0.023375504
000280 40 16 68 bc 11 3b c0 bd 35 e2 bd bd 5b 3a 7d 3d
       -0.014165461 -0.09386266 -0.09271661 0.06182323
000290 4f a5 88 bd f8 f4 13 bc a6 64 b9 3d 2c 45 b5 3d
       -0.06672155 -0.009030573 0.090524 0.08851084
0002a0 b3 42 9e 3d fb cd fb bc 20 c3 5e bd 62 e1 0c bd
       0.077275656 -0.030737868 -0.054385304 -0.03439463
0002b0 6b f0 b6 bb 58 df f8 3c dc c5 c5 bc 47 34 30 3d
       -0.0055828593 0.030379936 -0.024142198 0.043018606
0002c0 0b c1 51 3d ec fb e0 bc c3 18 5b 3d 57 53 d6 3c
       0.05120949 -0.027463876 0.05349041 0.026162786
0002d0 19 01 20 3d a4 6d 15 3d 8b 2b 31 bd ab 6d bd 3d
       0.039063547 0.036481515 -0.043254416 0.09249433
0002e0 8d 2a 52 3d a5 30 ad 3c b3 28 1e bb c1 fc e0 bc
       0.05131011 0.02114136 -0.0024133145 -0.027464272
0002f0 78 54 b1 bd a7 96 86 3d d2 06 79 3d a7 94 66 3d
       -0.08658689 0.065717034 0.06079752 0.05629411
000300 00 37 8f 3d 4a 3c b6 bd 8f ac 75 3b ab b8 ad bd
       0.06992912 -0.08898218 0.0037486886 -0.08482488
000310 28 b2 4b 3d 7a 12 08 3d e6 e6 8f bd e3 01 c2 bd
       0.04973045 0.033220746 -0.07026462 -0.09473016
000320 98 4d aa bc 04 d7 c6 3c 05 9a eb bc 18 ba 38 3d
       -0.020788953 0.02427245 -0.028759966 0.045099348
000330 60 53 b2 bd 96 cb 29 3c 78 31 4c 3d 65 51 b5 bd
       -0.08707309 0.01036348 0.049851865 -0.088534154
000340 69 48 64 3d 11 7d 32 3d de c3 c0 bd 36 74 59 bb
       0.05573312 0.043576304 -0.09412359 -0.003318084
000350 3e 4c 5d bd 98 c8 91 3c 58 cc 4e 3d 18 a5 70 3d
       -0.05402779 0.017795846 0.050487846 0.058751196
000360 2d f3 2e bc 75 95 1c bd 4d 95 cc bd 17 71 c4 bd
       -0.010678095 -0.03822847 -0.09989414 -0.09591883
000370 f8 91 a7 3a f3 24 cb 3d b8 89 cf bc e4 70 b4 bd
       0.0012784591 0.09919157 -0.025334224 -0.08810595
000380 63 fc 84 3d fb 4f cf 3d 0a 74 53 bd 50 3a 9d bc
       0.064934514 0.10122677 -0.051624335 -0.019192845
000390 0f 0e 08 3d bd 26 85 bd 36 d4 0e bd ea ac b9 3d
       0.033216532 -0.06501529 -0.03487035 0.09066184
0003a0 26 c9 45 3d 8b a2 c2 3d 34 33 c9 3d 8c 1e 85 3c
       0.048287533 0.09503659 0.09824219 0.016249917
0003b0 fd 1f 45 bd 53 bb 1d bd 70 0a a1 bc 74 07 1d 3d
       -0.04812621 -0.038508724 -0.019658297 0.038337186
0003c0 45 c5 93 bd 7e bf 29 bd 6f 2c c4 3c a5 e1 a4 bc
       -0.072153606 -0.041442387 0.023946969 -0.020127127
0003d0 43 1b 5b 3d 4d 59 9d bd 07 e2 c2 3c f9 b4 b4 3d
       0.053492796 -0.076830484 0.023789419 0.0882358
0003e0 82 3e 29 bd 2e 87 8a bc 04 89 30 bc 90 fa 18 3c
       -0.041319378 -0.016910162 -0.010774855 0.0093370825
0003f0 c5 8b bc 3d 20 93 12 3b 6f da 99 bc c5 86 c3 bc
       0.092063464 0.0022365525 -0.018780915 -0.023867974

GNN2.bias f4 [100]
000000 c8 7d cc bd fa 86 a0 bd 43 5f a4 bd 1a c8 77 bd
       -0.09984928 -0.07838245 -0.08025982 -0.060493566
000010 00 91 b6 3d d6 b8 9c bd c3 fe b7 bd 74 30 b5 bd
       0.08914375 -0.07652442 -0.08984139 -0.08847132
000020 92 04 9b bb 52 36 d0 3d 14 e5 65 3d 9f 5a 99 bc
       -0.0047307694 0.10166611 0.05612667 -0.01871997
000030 0e 41 b7 bd 28 8b 1e 3d bc 36 5d 3d 08 da 5d 3d
       -0.08947955 0.03870693 0.054007277 0.05416301
000040 8e b3 99 3d 8d ee b1 bd 6a ec 02 3c 32 21 74 bd
       0.075049505 -0.08688078 0.007990936 -0.05960197
000050 ff 13 53 3d 1c 28 8e bd 48 49 fc bc e1 5a 44 3c
       0.05153274 -0.06941244 -0.030796662 0.011984558
000060 6c 96 8b 3d a9 34 f7 3c 3b 24 b6 bc aa 8b a2 3d
       0.068158 0.030176478 -0.022234073 0.07936795
000070 24 30 87 bd 31 97 aa bc 35 62 c5 3d 45 5a 87 bd
       -0.06600979 -0.020824047 0.09637872 -0.066090144
000080 d3 99 a8 3c 83 f5 98 3d 0e e2 ab 3d 89 d8 4f bd
       0.020581162 0.07468703 0.08392726 -0.050743613
000090 e4 1a 08 bd 5e d2 a5 bd d3 29 7f 3d dc 7c 81 3d
       -0.03322877 -0.08096765 0.062295746 0.06322643
0000a0 48 f3 ac 3d 28 7d 30 bd 23 8a 29 bd e5 e3 54 3d
       0.0844484 -0.04308811 -0.041391503 0.05197515
0000b0 b9 64 68 3b ec f3 b2 bd 98 b7 a9 bd c3 bc 66 bc
       0.0035460426 -0.08737931 -0.08286971 -0.01408309
0000c0 a0 b0 dc 3b ed 86 70 3d 5c 12 80 bd 3f b1 83 3d
       0.0067349225 0.058722425 -0.06253502 0.064302914
0000d0 f0 ce 2d bd 1b 41 ad 3b 67 49 32 bd 89 b3 b8 bb
       -0.04243368 0.005287302 -0.043527033 -0.0056366366
0000e0 33 9d 46 bd 4e 4d e5 bc 7c a9 34 3c 95 93 86 bd
       -0.04848976 -0.027990963 0.011026736 -0.06571118
0000f0 6b 01 d0 3b 86 08 86 bd 66 bc 9c 3d 1e ed 53 bb
       0.0063478253 -0.065445945 0.07653122 -0.0032337378
000100 6e f7 21 bd ce 97 be bd 8f 12 9b 3b ec c2 88 bd
       -0.039542608 -0.09306298 0.004732437 -0.066778034
000110 0f b7 58 bd 4e 42 b6 3d 03 e2 2a bd 05 ad 10 3d
       -0.052908953 0.08899365 -0.041719448 0.035321254
000120 41 76 33 bd 57 e1 68 bd 49 80 c9 3d 36 c4 83 3d
       -0.043813948 -0.056855526 0.098389216 0.06433909
000130 00 e1 6d 3d 14 1f 67 bd 36 b2 27 bd 8a de 1d bd
       0.058075905 -0.056426123 -0.04094144 -0.038542308
000140 f2 ac 39 3d e1 15 7c 3d c0 3a b9 3d b2 f3 9b 3d
       0.04533095 0.061544303 0.09044409 0.076148406
000150 fb 2a bc bd 06 69 bd bd a7 bf 9b bd 01 44 44 bd
       -0.091878854 -0.09248547 -0.07604914 -0.047916416
000160 94 e2 aa 3c 31 9d a5 3d e1 81 f2 3c fb 66 ce bd
       0.020859994 0.080866225 0.029602947 -0.10078236
000170 8b 4d a3 bd e9 ba a3 3c ed ab 34 bd e7 57 e9 bb
       -0.079737745 0.019986587 -0.044109274 -0.0071210745
000180 bc c6 64 bd 40 a3 63 3d 7e f0 8a bd d9 35 d2 bc
       -0.05585359 0.05557561 -0.067841515 -0.025660442

GNN3.Theta1 f4 [300, 100]
000000 09 be b6 3d b8 44 9b 3d af 80 08 3d 90 ec ad bd
       0.08922965 0.075814664 0.033325847 -0.08492386
000010 d2 83 ba bd 0f 06 a4 bb 67 bf a9 bc 67 1d 97 3d
       -0.09107174 -0.005005605 -0.02072115 0.07378655
000020 65 5f 1a 3d 45 4f 64 3d 3c 5e 8b bd 41 6d 02 3d
       0.03768863 0.05573966 -0.06805083 0.031842474
000030 bd 10 7a 3d aa ef 2b 3b 4e 64 a9 3b 8a 04 d3 3c
       0.06105112 0.002623538 0.005169428 0.025759
000040 12 9a a9 3c 06 24 6e 3d ab d5 2f 3c be 0a c5 ba
       0.02070335 0.058139823 0.010732095 -0.0015033109
000050 79 4c 95 3c 4b c8 d8 3c a8 a5 c4 3a 06 c3 60 3d
       0.018224942 0.026462695 0.0015002983 0.05487349
000060 b3 e8 8c 3d a4 5a 30 bd 66 ec 6a bd f1 73 a9 bd
       0.06880321 -0.04305519 -0.057354353 -0.08274067
000070 3b 43 ad bc 5d 86 c9 3c 54 9c 27 bd d4 e3 ae bd
       -0.021150222 0.024600202 -0.04092057 -0.085395485
000080 79 1c c7 bd d0 c1 5d 3d 1a fb 4f bd f5 8c 60 bd
       -0.097222276 0.054139912 -0.05077658 -0.054821927
000090 5d f2 ea bc 0e d8 4e bd 21 9e 60 3d 52 3f bc bd
       -0.028680021 -0.050499015 0.054838303 -0.09191765
0000a0 53 b6 92 bd 47 3d 74 3d 0d fb 73 3b 98 44 98 bc
       -0.07163682 0.05962875 0.0037228495 -0.018587396
0000b0 41 95 bd bd 78 ba 27 bd 05 48 60 bc 07 c9 98 3c
       -0.092569835 -0.040949315 -0.013689046 0.018650545
0000c0 61 47 79 bd 8e 14 49 bd 9f 96 be 3d 3e 0f 37 3c
       -0.060859088 -0.049091868 0.093060724 0.011173068
0000d0 f7 a9 4f 3c 19 de 9c 3d c1 13 35 bb cf 67 4e bc
       0.0126748 0.07659549 -0.0027630182 -0.012597992
0000e0 8a 48 59 bd ec 1f 38 3d 58 94 2b bc 8f 7e 8e bd
       -0.053047694 0.044952318 -0.01047238 -0.06957733
0000f0 db 0a c4 3d 7e 4b 6d 3c a8 36 98 bd 0c f8 92 3b
       0.09572383 0.014483331 -0.074323 0.004485136
000100 91 e4 58 bd 68 fd 39 bd d6 d4 4a bc 9a f7 98 3b
       -0.052952353 -0.045407683 -0.012379846 0.0046681883
000110 56 f5 e3 bc a3 6b b9 3d 35 0e a9 bc 42 d4 d7 bc
       -0.027826946 0.09053733 -0.020636657 -0.02634633
000120 26 b2 a3 3d 49 00 b7 bd a8 52 f8 3c 93 91 a6 3c
       0.079929635 -0.08935601 0.030312851 0.020333087
000130 eb b8 aa 3d ab 3a c0 3d a5 3d 28 bd 7a 5d 9c bc
       0.083360516 0.0938619 -0.041074414 -0.019087542
000140 3e 59 99 3d 81 5d 09 3c 96 ff cd bd 9a 66 bb bc
       0.07487725 0.0083841095 -0.10058515 -0.022876073
000150 fd f3 ab bd 37 aa 5d bd 67 36 38 bd 04 23 c7 bd
       -0.083961464 -0.054117408 -0.044973757 -0.097234756
000160 a1 27 2c 3d d0 46 98 3d 41 c3 76 bd 88 57 ae 3c
       0.04202998 0.074353814 -0.060244802 0.021281973
000170 03 35 02 bc 33 25 5e 3d 2e e9 13 bd 76 41 0c 3c
       -0.007947209 0.054234695 -0.03611105 0.008560529
000180 db 3b 17 3d 19 13 a8 bd fd 50 7a 3d 11 45 16 3d
       0.036922317 -0.082067676 0.061112393 0.03668696
000190 62 93 2b 3d ed 1b 7a 3c 81 db bb 3d 61 80 8e 3d
       0.041888602 0.015265447 0.091727264 0.0695808
0001a0 86 96 4f 3d e7 c1 96 bd 50 50 1e 3d fb 0c 3a 3d
       0.05068066 -0.07361203 0.03865081 0.045422535
0001b0 51 8f 65 3d 47 69 b5 3b 06 1d fd 3c fd ff 8a 3d
       0.05604488 0.0055362317 0.030897629 0.06787107
0001c0 4b 3e 1d 3d 34 f6 49 3d 32 15 58 3d 2a 00 66 3c
       0.038389485 0.049307063 0.05275459 0.014038125
0001d0 10 b5 21 3d e5 34 b8 bd 02 39 52 3d a4 42 01 bd
       0.039479315 -0.08994464 0.051323898 -0.031557694
0001e0 35 c4 b0 3d be 64 40 bd 0d b1 a2 bd 03 72 9d 3d
       0.086311735 -0.046971075 -0.07943926 0.07687762
0001f0 55 cc a2 bc 6d 72 b0 bd 6f 0e 08 3d e2 3e 30 bd
       -0.019872824 -0.08615575 0.03321689 -0.04302872
000200 c1 ed 79 3d 29 ee 82 bd 83 b4 17 bd f9 1c 6a 3b
       0.061017755 -0.06393082 -0.037037384 0.0035722835
000210 84 b3 a4 3b 87 1e 77 bd 57 86 40 3c 5d 32 09 bd
       0.0050262827 -0.060331848 0.011750779 -0.033495296
000220 9f 71 af 3d ed cc ff bb 3c 51 e4 3c be 2e a9 bd
       0.085665934 -0.0078064115 0.027870767 -0.082608685
000230 46 28 93 3d 1b dc 1f bd 70 18 d4 3c 4f ee c6 bd
       0.07185416 -0.03902827 0.025890559 -0.097134225
000240 96 71 46 bd d4 d9 58 3d e4 13 bf bd 1a d8 a2 bd
       -0.048448168 0.052942112 -0.09329966 -0.07951374
000250 2d 4e b5 bc 81 bb 97 3d 01 79 69 3d 7a 5e 2d 3d
       -0.022132004 0.074088104 0.057000164 0.042326428
000260 a3 d1 ae 3b b1 e3 db ba c2 fa 6b 3c 2d 8a bf b9
       0.0053350492 -0.0016776231 0.014403047 -0.00036533308
000270 3e 36 04 3d 2e 64 6c 3c a7 11 55 bc cd d3 c1 3d
       0.032278292 0.014428182 -0.013004697 0.09464226
000280 7b ad a0 bd 79 0e 82 3d 82 1c 79 3d ed bc 89 bc
       -0.07845589 0.06350417 0.060818203 -0.01681372
000290 e0 26 2a 3d f0 4d 5a 3c 17 ee 88 3d 86 38 97 3d
       0.04154098 0.013324246 0.06686037 0.07383828
0002a0 4b 11 c2 3b 73 7f b7 ba 6c 26 c8 3d 64 47 66 3d
       0.0059224716 -0.0013999775 0.097729534 0.056220427
0002b0 e3 86 82 3d e3 99 b9 3d 96 78 82 bb 75 75 c6 bd
       0.06373384 0.09062555 -0.00398166 -0.09690372
0002c0 9d 4e 21 bd 4f c6 c2 bc 0c fe 7c 3d 51 31 70 3d
       -0.039381612 -0.023776202 0.061765715 0.05864078
0002d0 72 3b de 38 b1 50 c0 3d b9 69 99 3d e2 2e c8 3a
       0.000105968575 0.09390391 0.07490868 0.0015272761
0002e0 66 ac d2 bc 6a 65 0a 3d f1 00 1b bd 99 4e b5 3b
       -0.025716972 0.033788122 -0.037842695 0.005533051
0002f0 e3 67 ff 3c 8e aa 4f bd d2 de 9b 3d de 18 b9 bc
       0.031177467 -0.050699763 0.07610859 -0.022594865
000300 63 26 b7 bb 9d 94 a9 bd a9 7a 93 3d c8 97 97 3d
       -0.005589293 -0.08280299 0.0720113 0.07401997
000310 4e 66 76 bd a4 be 1c 3d 3e 4c b3 bd 00 72 cc bd
       -0.06015616 0.038267747 -0.087547764 -0.09982681
000320 8b 14 f8 3c 16 d5 5d bd e2 5a 27 3b 9b 5e 3f 3d
       0.030283233 -0.054158293 0.0025536348 0.046721082
000330 8a c3 b7 bc 0e 58 49 3d 17 34 e1 bc 50 66 11 3c
       -0.022432107 0.04915624 -0.027490659 0.008874491
000340 34 c8 07 3d 36 d4 3d bd 0f 63 b6 3d a8 12 ba bc
       0.033149913 -0.04634496 0.08905613 -0.022713974
000350 23 76 7e bd 71 1c b2 bd 7f 72 5d 3d 11 a5 79 3c
       -0.062124383 -0.08696831 0.05406427 0.015237109
000360 33 2c 7c 3d bd 88 34 bc b5 ef 09 bd a7 34 19 bd
       0.06156559 -0.011018929 -0.033675868 -0.03740373
000370 fa c8 7c 3d 8d 19 ca 3c 9d b6 ad bd 44 75 89 3d
       0.061715104 0.024670387 -0.08482096 0.0671182
000380 60 a8 73 bd 69 c6 70 bd 39 c4 a6 3d aa 92 a2 bd
       -0.059486747 -0.05878297 0.08142895 -0.0793813
000390 e9 bd c5 3d c9 c2 d0 3d 46 bf b5 3d 9d 92 09 3d
       0.09655363 0.10193402 0.08874373 0.033587087
0003a0 3f c4 5f bd 70 44 9c bc 6a d5 b9 bd a0 b4 bb 3d
       -0.054630514 -0.019075602 -0.090739086 0.09165311
0003b0 66 e9 83 bc f7 f1 95 3d 44 89 70 bd 0a 18 15 3c
       -0.016102504 0.07321542 -0.058724657 0.00909997
0003c0 44 be 94 bc 8c 72 bd 3c 95 74 15 bd 79 f6 5e bd
       -0.018157132 0.02312591 -0.036488134 -0.054434273
0003d0 1f d9 ab bb 04 ed 2e 3d a3 c8 61 3d 77 dd b4 bd
       -0.0052443887 0.042706504 0.055122983 -0.088313036
0003e0 f2 9a 80 3d aa 63 ab b9 bd 9b a4 bd 64 ab 5b bd
       0.062795535 -0.00032689917 -0.08037517 -0.053630248
0003f0 e9 17 56 3d 52 e3 74 3d 81 37 d8 3c 6f e7 31 3c
       0.052268896 0.059787102 0.026393654 0.010858401

GNN3.bias f4 [100]
000000 d1 d2 9e 3c 78 22 84 3d bf 56 74 bd 3d f8 51 bd
       0.019387634 0.06451887 -0.05965304 -0.05126213
000010 c0 11 a6 3c 51 1a ac bd bc ab b9 bd 70 19 4f 3d
       0.020272136 -0.08403457 -0.09065959 0.05056137
000020 64 bf 89 3c 36 40 51 bc 90 5a 3d 3c e5 d8 a2 3d
       0.016814895 -0.012771657 0.011557236 0.079515256
000030 66 59 45 bd 9d 64 84 bd f3 62 c1 bc dc 6a f5 bb
       -0.04818096 -0.06464503 -0.023606753 -0.0074895453
000040 ef 4d 81 3d 69 a1 bb bb 8f 4c 68 3d 31 fc 25 bd
       0.06313693 -0.0057260287 0.056713637 -0.04052371
000050 04 62 43 bd 52 93 1b 3d 1a 57 2d bc be 73 b8 3d
       -0.047700897 0.037982292 -0.010579849 0.09006451
000060 55 9e 8c 3d b9 c1 b1 bd c0 94 c0 3d 5f 8e ad bd
       0.06866137 -0.08679528 0.09403372 -0.08474421
000070 7d d0 60 bd 0d 23 b2 3d 5e 22 e2 3b 9d 44 e3 3c
       -0.05488633 0.08698092 0.0069010695 0.027742678
000080 94 a8 c4 3d f0 c6 62 3d 97 28 8b 3d 42 d6 8c bd
       0.09602466 0.055365503 0.06794851 -0.06876804
000090 ad 56 20 bd c0 ec 06 bc b8 2c 76 3c aa 74 91 3d
       -0.03914516 -0.008235157 0.01502531 0.0710233
0000a0 cf 37 1e 3d ba aa 89 bd 24 57 3f bd 95 44 f6 bb
       0.038627442 -0.06722017 -0.046713963 -0.0075155
0000b0 97 4f 44 3c bc a3 aa 3d 9a c9 c7 bd 25 90 25 bd
       0.011981866 0.08332011 -0.09755249 -0.04042067
0000c0 52 d9 9d bd 88 4e b5 3d 06 56 b4 bd ea 03 85 3c
       -0.07707466 0.08852869 -0.0880547 0.016237218
0000d0 e9 a7 13 3d 14 53 97 3d 33 6c 1f bd e2 43 95 3d
       0.036048803 0.07388893 -0.038921546 0.07288338
0000e0 16 8a 9b bd 1c 0f a6 3c af b7 c9 3b b6 27 53 bd
       -0.07594697 0.020270877 0.00615593 -0.051551543
0000f0 18 ee a2 3c 32 1f 93 bd 2c 50 90 3c e9 30 ad 3d
       0.019888923 -0.071836844 0.017616354 0.084565945
000100 f3 2a ef bc 65 a8 85 bd e6 c4 ab 3d a1 89 a7 3c
       -0.029195284 -0.06526259 0.08387165 0.020451369
000110 d8 d4 a8 bc 45 a7 98 bd 9f 26 07 3d f3 e1 e8 bb
       -0.020609304 -0.07453779 0.032995816 -0.0071070134
000120 58 3a 2a bd 6c b1 42 3d 62 a9 9f bd 46 db 19 3d
       -0.041559547 0.047532484 -0.07795979 0.03756263
000130 75 40 82 bd df a1 10 3d 87 d6 b3 bd 45 05 2c 3d
       -0.063599505 0.035310622 -0.08781152 0.041997213
000140 da df a4 bd f6 78 60 3d ae 05 ba bd cd 06 29 3b
       -0.08050509 0.054802857 -0.090831146 0.0025791407
000150 19 29 9c 3d 75 aa 54 3c 0d 96 b5 3d 58 eb 36 3d
       0.07625026 0.012980093 0.088665105 0.044658035
000160 ef 92 8c 3d 7e 06 7c 3d e2 92 d0 3c 52 6c 2f 3c
       0.06863963 0.06152963 0.025460664 0.010706978
000170 ff b0 97 bd b7 f9 5c 3d d7 1b aa 3d 56 19 4f bb
       -0.07406806 0.053949084 0.08306091 -0.0031600795
000180 7b 51 99 3c f3 d1 24 3d 29 af c8 bd 69 13 b9 bd
       0.01871561 0.040239286 -0.09799034 -0.09036905

ln1.weight f4 [100]
000000 ac 3c 80 3f 4d a9 7f 3f da 37 80 3f e9 39 80 3f
       1.0018516 0.9986771 1.0017045 1.0017673
000010 cd 27 80 3f bc 93 7f 3f 44 35 80 3f 95 3b 80 3f
       1.0012146 0.998348 1.0016255 1.0018183
000020 38 98 7f 3f ad 95 7f 3f 77 67 7f 3f e0 91 7f 3f
       0.9984164 0.9983776 0.9976725 0.9983196
000030 17 6c 7f 3f 05 42 80 3f ef 9f 7f 3f 3c a5 7f 3f
       0.99774307 1.0020148 0.99853414 0.998615
000040 c6 be 7f 3f 0d 98 7f 3f fc 1d 80 3f e4 81 7f 3f
       0.9990047 0.99841386 1.000915 0.9980757
000050 a7 93 7f 3f bc 82 7f 3f 2c 9c 7f 3f 24 43 80 3f
       0.99834675 0.9980886 0.99847674 1.002049
000060 db 37 80 3f 34 31 80 3f 23 a2 7f 3f 42 42 80 3f
       1.0017046 1.0015016 0.99856776 1.002022
000070 74 57 80 3f 21 96 7f 3f 3b 28 80 3f 3b ca 7f 3f
       1.0026689 0.99838454 1.0012277 0.99917954
000080 e7 43 80 3f 57 3b 80 3f b5 7c 7f 3f ac 46 80 3f
       1.0020722 1.0018109 0.9979966 1.0021567
000090 d1 99 7f 3f 06 21 80 3f 69 44 80 3f 66 9b 7f 3f
       0.9984408 1.0010078 1.0020877 0.99846494
0000a0 2e 8b 7f 3f 6d 3e 80 3f 0d 30 80 3f 4f 25 80 3f
       0.99821746 1.0019051 1.0014664 1.0011386
0000b0 b9 39 80 3f bf 8a 7f 3f ea 33 80 3f d3 32 80 3f
       1.0017616 0.99821085 1.0015843 1.001551
0000c0 30 34 80 3f cc 26 80 3f 15 1f 80 3f 20 9a 7f 3f
       1.0015926 1.001184 1.0009485 0.9984455
0000d0 1e ae 7f 3f b9 94 7f 3f 78 ec 7f 3f 73 82 7f 3f
       0.99875057 0.9983631 0.999702 0.99808425
0000e0 e6 d3 7f 3f ef 29 80 3f 58 a0 7f 3f 1f 3a 80 3f
       0.99932706 1.0012797 0.9985404 1.0017737
0000f0 14 3c 80 3f e0 a5 7f 3f a7 8e 7f 3f f3 93 7f 3f
       1.0018334 0.9986248 0.99827045 0.9983513
000100 59 a1 7f 3f 82 7b 7f 3f 2b 8b 7f 3f d6 80 7f 3f
       0.9985557 0.9979783 0.9982173 0.99805963
000110 0f 41 80 3f 03 0f 80 3f 9a 7a 7f 3f e0 8f 7f 3f
       1.0019854 1.0004581 0.9979645 0.9982891
000120 9f 99 7f 3f 63 98 7f 3f d1 34 80 3f 64 8f 7f 3f
       0.9984378 0.998419 1.0016118 0.9982817
000130 6d 26 80 3f 75 3f 80 3f 92 9c 7f 3f 02 a0 7f 3f
       1.0011727 1.0019366 0.9984828 0.9985353
000140 a9 39 80 3f e3 9f 7f 3f c0 38 80 3f a7 40 80 3f
       1.0017596 0.9985334 1.0017319 1.001973
000150 30 20 80 3f d3 83 7f 3f f0 3d 80 3f 4b 4b 80 3f
       1.0009823 0.9981052 1.0018902 1.0022978
000160 02 94 7f 3f 86 04 80 3f ba a4 7f 3f 01 35 80 3f
       0.99835217 1.000138 0.9986073 1.0016176
000170 3b 8f 7f 3f 23 2d 80 3f b2 38 80 3f 53 18 80 3f
       0.9982793 1.0013775 1.0017302 1.0007423
000180 cc 9a 7f 3f 96 16 80 3f 87 40 80 3f 48 99 7f 3f
       0.99845576 1.0006893 1.0019692 0.99843264

ln1.bias f4 [100]
000000 f5 23 f4 ba e1 19 98 ba 26 64 dc ba 37 f9 dc ba
       -0.0018626439 -0.0011604392 -0.0016814515 -0.001685894
000010 88 eb a5 3a 21 c2 e7 ba ee b3 d6 ba 25 cc ee ba
       0.0012658695 -0.0017681756 -0.0016380528 -0.0018218799
000020 44 28 c1 ba 4a 75 ca 3a 3c 65 8d 3a 05 ee dd 3a
       -0.0014736732 0.0015446332 0.0010787616 0.0016931897
000030 57 b5 02 bb c7 fc 02 bb 23 e5 c0 ba 72 cb e6 3a
       -0.0019944513 -0.0019987093 -0.0014716726 0.0017608239
000040 b1 d8 2a 37 ab 68 ea 3a ba bd 9c 3a b8 c1 ff 3a
       1.0183242e-05 0.0017883977 0.0011958398 0.0019512689
000050 6c eb d9 3a fd 20 f5 ba de aa c7 3a 6d d0 fd ba
       0.0016625947 -0.0018701848 0.0015233418 -0.0019364484
000060 85 43 de ba 71 3d 14 bb f8 89 e7 3a 0b ed f1 ba
       -0.0016957378 -0.002261963 0.0017665019 -0.0018457485
000070 82 b6 1d bb ac ac d7 ba ed e4 a2 ba 01 6c 20 ba
       -0.0024065082 -0.0016454658 -0.0012427844 -0.00061196095
000080 4c ab f1 3a b7 3d de ba e1 7b 3d 3a 9d cb 0c bb
       0.0018437891 -0.0016955648 0.0007228237 -0.0021483668
000090 a0 29 cf 3a 82 7a a3 ba 98 52 e6 ba 8b 41 b0 ba
       0.0015805252 -0.0012472423 -0.0017572222 -0.0013447268
0000a0 f1 d7 00 3b 4e 65 fb ba fc b3 c1 ba a6 43 95 ba
       0.001965996 -0.0019179971 -0.0014778371 -0.0011387959
0000b0 8d 57 d7 ba 96 33 dd 3a 89 c9 c4 ba 86 3a c7 3a
       -0.001642929 0.0016876336 -0.0015013675 0.0015199936
0000c0 ad 03 d0 ba fb b6 b3 3a 89 76 79 ba 5c 45 69 ba
       -0.0015870236 0.0013711149 -0.00095162593 -0.000889858
0000d0 e1 c8 a4 3a c4 df e8 3a 30 b2 d3 39 5a 47 fb 3a
       0.0012572074 0.0017766883 0.00040377816 0.0019171045
0000e0 e0 4d 36 3a 0e bd ab 3a 34 13 c0 3a a8 7b f5 ba
       0.00069543533 0.0013102607 0.001465416 -0.0018728869
0000f0 d8 ef e2 ba b2 d0 af 3a 8f 19 e9 3a ff ed d9 3a
       -0.0017313911 0.0013413636 0.0017784106 0.0016626714
000100 cf 5a c2 3a 02 57 0d 3b ba dd ed 3a 67 90 10 ba
       0.0014828088 0.0021566753 0.0018147745 -0.00055146817
000110 b1 ea fc ba 0b a5 53 ba d0 32 8c 3a a0 d5 e1 3a
       -0.0019296018 -0.00080736045 0.0010696296 0.0017229803
000120 67 e7 d9 3a cf ac cb ba 0e 10 c7 3a a3 cf f2 3a
       0.0016624749 -0.0015539172 0.001518728 0.0018525015
000130 73 4f 80 ba 33 a5 dd ba 7c bb f4 ba a3 02 bf ba
       -0.0009789303 -0.0016910195 -0.0018671597 -0.0014572929
000140 4b bd e6 ba ab 20 e5 3a ec c5 db 3a e3 53 01 bb
       -0.0017604021 0.0017481049 0.0016767359 -0.0019733838
000150 ca fd 85 3a 7d 11 fb 3a 15 a5 f5 ba 54 14 f4 3a
       0.001022273 0.0019154992 -0.0018741215 0.0018621781
000160 4d f4 db 3a 7b 52 09 bb 84 b9 c5 ba 8e 3d d3 ba
       0.0016781181 -0.0020953703 -0.0015085195 -0.0016116367
000170 0b 05 e3 3a 86 76 ba 3a 5e e1 e3 ba 32 e3 de ba
       0.0017320229 0.0014225997 -0.001738589 -0.0017004965
000180 d2 1c cb 3a a8 24 de ba 01 11 01 bb de f0 7e ba
       0.001549626 -0.001694818 -0.0019693973 -0.0009725223

ln2.weight f4 [100]
000000 ec 4a 80 3f 9c 0e 80 3f 87 97 7f 3f 37 40 80 3f
       1.0022864 1.0004458 0.9984059 1.0019597
000010 ba 17 80 3f 18 c3 7f 3f b0 36 80 3f 78 37 80 3f
       1.0007241 0.99907064 1.0016689 1.0016928
000020 10 51 7f 3f 19 21 80 3f 64 89 7f 3f 25 2d 80 3f
       0.99733067 1.0010101 0.99819016 1.0013777
000030 9b 10 80 3f d8 40 80 3f 45 be 7f 3f 83 4b 80 3f
       1.0005068 1.0019789 0.99899703 1.0023044
000040 4b cc 7f 3f 79 49 80 3f 8d 12 80 3f 6d 7a 7f 3f
       0.999211 1.0022422 1.0005661 0.9979618
000050 5b 94 7f 3f 04 e1 7f 3f f0 ca 7f 3f 75 7c 7f 3f
       0.9983575 0.9995272 0.99919033 0.9979928
000060 e1 be 7f 3f 5f 3f 80 3f 99 4f 80 3f b4 3e 80 3f
       0.99900633 1.0019339 1.0024291 1.0019135
000070 f0 42 80 3f 6c 95 7f 3f f0 7a 7f 3f a3 80 7f 3f
       1.0020428 0.99837375 0.9979696 0.9980566
000080 96 50 80 3f a4 b2 7f 3f e1 6d 7f 3f 1d 41 80 3f
       1.0024593 0.9988196 0.99777037 1.0019871
000090 88 c4 7f 3f 0e 54 80 3f 75 c1 7f 3f b0 91 7f 3f
       0.9990926 1.0025651 0.99904567 0.99831676
0000a0 6b 92 7f 3f 4a 3f 80 3f c3 2c 80 3f 4b 99 7f 3f
       0.9983279 1.0019314 1.001366 0.9984328
0000b0 8d 3c 80 3f 94 38 80 3f 77 30 80 3f 28 03 80 3f
       1.0018479 1.0017266 1.001479 1.0000963
0000c0 df 39 80 3f 8a cb 7f 3f 4c 54 80 3f 5f 35 80 3f
       1.0017661 0.9991995 1.0025725 1.0016288
0000d0 50 84 7f 3f 07 87 7f 3f 01 7e 7f 3f 8a b7 7f 3f
       0.9981127 0.9981541 0.9980164 0.99889433
0000e0 80 8c 7f 3f fa 2d 80 3f ba f4 7f 3f ce 42 80 3f
       0.9982376 1.0014031 0.999828 1.0020387
0000f0 be 38 80 3f f1 0e 80 3f 3f ac 7f 3f ad 37 80 3f
       1.0017316 1.000456 0.998722 1.0016991
000100 d5 2f 80 3f 2a 99 7f 3f b8 87 7f 3f 88 27 80 3f
       1.0014597 0.99843085 0.99816465 1.0012064
000110 40 42 80 3f fd 79 7f 3f a2 86 7f 3f 06 9f 7f 3f
       1.0020218 0.99795514 0.9981481 0.99852026
000120 97 aa 7f 3f 0f 9d 7f 3f 6c 33 80 3f 3e 4f 80 3f
       0.99869674 0.9984903 1.0015693 1.0024183
000130 b5 2d 80 3f 0f 4a 80 3f c9 d6 7f 3f e2 fb 7f 3f
       1.0013949 1.0022601 0.9993711 0.9999372
000140 66 31 80 3f 7b 92 7f 3f 24 3a 80 3f 4d 22 80 3f
       1.0015075 0.99832886 1.0017743 1.0010468
000150 a6 53 7f 3f 1b 77 7f 3f 98 41 80 3f 5f ba 7f 3f
       0.9973701 0.99791116 1.0020018 0.99893755
000160 50 33 80 3f 0b 49 80 3f 45 aa 7f 3f 00 aa 7f 3f
       1.0015659 1.0022291 0.99869186 0.99868774
000170 f0 8d 7f 3f 53 2c 80 3f ef 37 80 3f 09 9a 7f 3f
       0.99825954 1.0013527 1.001707 0.99844414
000180 ee b8 7f 3f fa 44 80 3f 2a 3f 80 3f b0 2f 80 3f
       0.99891555 1.002105 1.0019276 1.0014553

ln2.bias f4 [100]
000000 a7 b9 0e bb db 11 40 3a 23 43 ea ba cb f0 06 bb
       -0.0021778138 0.00073268794 -0.0017872792 -0.00205903
000010 b9 e3 5d 3a 57 43 58 ba cc 08 da ba d8 84 dc ba
       0.0008464414 -0.00082497805 -0.0016634702 -0.0016824258
000020 8a 92 1b 39 a1 17 dd 3a 32 9b 61 b9 6e 09 ef 3a
       0.00014836542 0.0016868004 -0.00021515487 0.0018237063
000030 3e 9c e6 ba 68 79 fe ba fa 04 d4 ba 7d a3 eb 3a
       -0.0017594171 -0.0019414844 -0.00161758 0.00179778
000040 c1 a5 0e 3b d5 c9 ff 3a ae da 74 3a 97 53 06 3b
       0.0021766277 0.0019515107 0.0009340447 0.00204966
000050 2e 7b db 3a 86 52 ff b9 b4 c9 9e 39 bc 4a fc 3a
       0.0016745084 -0.00048698875 0.0003028639 0.0019248347
000060 43 9e e0 ba 0e 27 ec ba 36 22 ed 3a 3f 1a e9 ba
       -0.0017137009 -0.001801701 0.0018091861 -0.0017784311
000070 1d d8 f0 ba a7 9f ee ba 04 31 05 3b 60 c5 f9 ba
       -0.0018374954 -0.0018205539 0.0020323405 -0.0019056015
000080 5a 28 f0 3a 90 c0 ad ba f3 31 4c 3a 64 cb ff ba
       0.0018322573 -0.0013256241 0.00077894254 -0.0019515571
000090 ad 8f 1b bb ba e0 ed 3a 69 16 d8 ba af 24 d6 ba
       -0.002373676 0.0018148639 -0.0016486171 -0.0016337837
0000a0 3d 4b f3 3a c5 25 04 bb c9 8c b4 ba 2f 88 fb 3a
       0.0018561851 -0.0020164114 -0.0013774867 0.0019190366
0000b0 83 66 e3 ba 6c da f2 3a d7 63 c7 ba cb 45 94 3a
       -0.0017349276 0.001852823 -0.001521225 0.0011312304
0000c0 eb 85 e5 ba e8 8c ad 3a ca 87 1e 3b ad 81 04 bb
       -0.0017511224 0.0013240846 0.0024189823 -0.0020218894
0000d0 ba 28 f8 3a c9 19 fe 3a f8 02 c9 3a 09 26 92 3a
       0.0018933036 0.0019386347 0.0015335968 0.0011150251
0000e0 db de f8 3a 12 89 bd 3a 58 30 15 39 03 1b ed ba
       0.0018987315 0.0014460406 0.00014227757 -0.0018089715
0000f0 ec e7 d8 ba d0 ef 30 bb 59 82 ca 3a 7e b3 d5 3a
       -0.001654861 -0.0026998408 0.0015450224 0.0016304103
000100 8b 7a c6 3a ff fe f8 3a d7 e0 f1 3a 9c 0f 15 3b
       0.0015142722 0.0018996893 0.0018453848 0.00227449
000110 90 ec 01 bb e4 2b f6 3a b1 16 b2 3a 38 91 da 3a
       -0.001982484 0.0018781391 0.0013587085 0.0016675359
000120 1e ac 76 3a 4b d9 ba ba 7b 0b c4 3a c8 fb ef 3a
       0.0009409803 -0.0014255432 0.0014957035 0.001830929
000130 c6 b4 a6 ba 4d 3d 0c bb 1b 2e e8 ba 79 6f 15 3b
       -0.001271867 -0.0021398843 -0.0017713936 0.0022802039
000140 da 78 f4 ba 84 bd ee 3a f8 ad d2 3a 0c 7e 96 ba
       -0.0018651739 0.0018214439 0.0016073575 -0.0011481657
000150 df 8c 2b bb 60 2f 09 3b 89 f3 07 bb 59 a2 fd 3a
       -0.0026176495 0.0020932779 -0.0020744523 0.0019350752
000160 c0 11 cf 3a 56 c7 00 bb b5 f2 c8 ba 1d 1c f3 ba
       0.0015798137 -0.0019650063 -0.0015331121 -0.0018547807
000170 b4 25 f4 3a 2e fb b3 3a 43 68 df ba 3e 06 e5 ba
       0.0018626959 0.0013731474 -0.0017044622 -0.0017473174
000180 97 05 dd 3a 81 a9 e6 ba a4 87 f3 ba 03 68 b7 ba
       0.0016862628 -0.0017598124 -0.0018579853 -0.001399279

ln3.weight f4 [100]
000000 e5 47 80 3f b6 9b 7f 3f de a9 7f 3f fe 9a 7f 3f
       1.002194 0.9984697 0.9986857 0.99845874
000010 bc 15 80 3f d6 ac 7f 3f f6 2f 80 3f 96 4a 80 3f
       1.0006633 0.998731 1.0014637 1.0022762
000020 be 8e 7f 3f b6 4d 80 3f 3b 4f 80 3f 5c 4a 80 3f
       0.9982718 1.0023715 1.0024179 1.0022693
000030 ce b7 7f 3f 08 46 80 3f 0c 22 80 3f 24 c3 7f 3f
       0.9988984 1.0021372 1.001039 0.99907136
000040 ad f9 7f 3f b3 13 80 3f c0 45 80 3f 04 1f 80 3f
       0.9999035 1.0006012 1.0021286 1.0009465
000050 79 47 80 3f 5c 4e 80 3f fd ae 7f 3f aa 6e 7f 3f
       1.0021812 1.0023913 0.99876386 0.99778235
000060 68 a5 7f 3f c6 2d 80 3f 98 45 80 3f 13 c9 7f 3f
       0.99861765 1.0013969 1.0021238 0.9991619
000070 55 43 80 3f 92 8c 7f 3f c5 3b 80 3f d4 7a 7f 3f
       1.0020548 0.9982387 1.001824 0.99796796
000080 8f 42 80 3f ff 88 7f 3f 37 3f 80 3f 58 4b 80 3f
       1.0020312 0.99818414 1.0019292 1.0022993
000090 10 3f 80 3f 58 4f 80 3f 9b 4d 80 3f 2e 4e 80 3f
       1.0019245 1.0024214 1.0023683 1.0023859
0000a0 c8 95 7f 3f 04 9b 7f 3f e7 48 80 3f 39 38 80 3f
       0.99837923 0.9984591 1.0022248 1.0017158
0000b0 f9 a8 7f 3f c0 41 7f 3f 07 9c 7f 3f 15 3c 80 3f
       0.99867207 0.997097 0.99847454 1.0018336
0000c0 64 56 80 3f 3c 52 80 3f 49 4a 80 3f 83 4d 80 3f
       1.0026364 1.0025096 1.002267 1.0023655
0000d0 59 4a 80 3f 4c 4a 80 3f 20 3e 80 3f 7f 40 80 3f
       1.0022689 1.0022674 1.0018959 1.0019683
0000e0 5c 40 80 3f f7 47 80 3f 73 d8 7f 3f 95 43 80 3f
       1.0019641 1.0021962 0.9993965 1.0020624
0000f0 f7 15 80 3f 61 70 7f 3f 22 45 80 3f 6b 8e 7f 3f
       1.0006703 0.9978085 1.0021098 0.9982669
000100 f1 98 7f 3f 2a 9f 7f 3f ed a5 7f 3f 92 53 80 3f
       0.99842745 0.9985224 0.9986256 1.0025504
000110 ca 83 7f 3f 3a e2 7f 3f 08 91 7f 3f 99 96 7f 3f
       0.9981047 0.9995457 0.99830675 0.9983917
000120 2b 9b 7f 3f 5f 3b 80 3f fa 97 7f 3f 08 41 80 3f
       0.9984614 1.0018119 0.9984127 1.0019846
000130 b4 e1 7f 3f 92 8d 7f 3f 30 40 80 3f 86 4f 80 3f
       0.9995377 0.99825394 1.0019588 1.0024269
000140 19 69 80 3f 01 53 80 3f 89 00 80 3f 21 79 7f 3f
       1.0032073 1.0025331 1.0000163 0.99794203
000150 f9 41 80 3f 96 7a 7f 3f 3e b0 7f 3f 39 48 80 3f
       1.0020133 0.99796426 0.998783 1.0022041
000160 05 b6 7f 3f c9 2c 80 3f a9 48 80 3f 66 94 7f 3f
       0.99887115 1.0013667 1.0022174 0.99835813
000170 f7 27 80 3f a1 3e 80 3f 64 f0 7f 3f b7 ec 7f 3f
       1.0012196 1.0019113 0.9997618 0.99970573
000180 fc b8 7f 3f 6d e1 7f 3f 61 49 80 3f 5d 34 80 3f
       0.9989164 0.9995335 1.0022393 1.001598

ln3.bias f4 [100]
000000 23 50 05 bb 17 c9 f8 ba a5 b5 09 bb 38 2b 00 3b
       -0.0020341955 -0.0018980828 -0.002101281 0.001955701
000010 77 44 03 bb de f0 04 bb 9e 5a fc ba 92 96 08 bb
       -0.0020029822 -0.002028517 -0.001925308 -0.00208417
000020 2f 65 ea ba 4e 24 00 bb 87 75 06 bb 3e 8a 0c bb
       -0.0017882938 -0.001955289 -0.002051683 -0.0021444703
000030 b7 90 f5 ba 4d c4 ff 3a 6c 0e fa 3a d2 9a ff ba
       -0.0018735145 0.0019513458 0.0019077784 -0.0019501096
000040 a0 06 04 3b 01 73 06 3b a3 84 06 3b b5 4f fd ba
       0.002014555 0.0020515325 0.0020525835 -0.0019326123
000050 30 d2 02 3b 61 c0 05 3b ec bd 07 3b df 70 0d bb
       0.0019961707 0.0020408856 0.0020712567 -0.002158217
000060 d2 7f f6 ba 99 47 cf ba 7a 69 fd ba 35 e5 3a ba
       -0.0018806404 -0.0015814184 -0.0019333803 -0.00071294914
000070 96 b5 04 bb 10 81 f5 ba 7f 32 01 bb 51 2f fa 3a
       -0.0020249835 -0.001873048 -0.0019713936 0.0019087588
000080 f1 b9 14 3b d9 da 03 3b 1f 50 fa ba 47 08 00 bb
       0.0022693838 0.0020119457 -0.0019097364 -0.0019536184
000090 a1 28 04 3b 85 ea fd ba b5 17 00 bb ea dd 01 3b
       0.0020165818 -0.001937226 -0.001954538 0.001981611
0000a0 3c 0e ee ba 23 55 01 bb fc 9e ff 3a 94 91 0b 3b
       -0.0018162201 -0.0019734583 0.0019502337 0.0021296488
0000b0 85 c2 9d 3a 96 0a e8 ba 47 3e 02 bb 41 0b f5 ba
       0.0012036121 -0.001770335 -0.0019873546 -0.001869537
0000c0 a6 cd 01 bb b6 7d 01 bb 0b 60 03 bb bd c8 00 bb
       -0.0019806414 -0.0019758767 -0.002004626 -0.00196509
0000d0 9a 6b 08 3b 5a 5d 07 bb 89 52 08 3b 18 e6 00 3b
       0.0020816089 -0.0020655007 0.0020801148 0.0019668397
0000e0 ad fd f8 3a f2 d8 00 bb 1a bd cc 3a c6 a7 fc ba
       0.00189965 -0.001966056 0.0015620322 -0.0019276075
0000f0 9e b3 b2 ba 51 6c 04 bb af a7 08 3b 43 0e fd 3a
       -0.0013633852 -0.0020206163 0.00208519 0.0019306618
000100 11 a3 01 3b 20 96 cc 3a 7d 94 03 bb 54 94 17 3b
       0.0019781033 0.0015608706 -0.002007752 0.0023129182
000110 7e dc 01 bb 4d 3a f5 3a 09 2d 16 bb 0d 75 ca ba
       -0.0019815261 0.0018709392 -0.0022915027 -0.0015446261
000120 51 f1 ea 3a d1 2a 00 3b 92 fb fc ba 0c e3 03 bb
       0.0017924701 0.001955677 -0.0019301048 -0.0020124344
000130 98 9e 8c ba 60 a2 fc 3a 6c 33 f6 ba 08 51 00 3b
       -0.0010728417 0.0019274466 -0.0018783635 0.0019579548
000140 0e f3 3d 3b f8 b7 0d bb 67 44 a1 3a 9e ee 07 bb
       0.0028983983 -0.0021624546 0.0012303711 -0.0020741592
000150 51 ac f8 ba 09 ae 07 bb 5d 19 f9 3a 0a ed f8 3a
       -0.0018972253 -0.0020703098 0.0019004751 0.0018991542
000160 e6 cf ea 3a 37 4b 4a bb 7e 25 07 bb 1b 55 01 bb
       0.0017914742 -0.0030867585 -0.0020621712 -0.0019734565
000170 ca d5 ee 3a ff c3 f8 ba a1 34 ff ba 62 06 01 bb
       0.0018221673 -0.001897931 -0.0019470641 -0.0019687642
000180 49 1f ea 3a f7 15 ed 3a 25 28 fb ba a3 2f cc ba
       0.0017862107 0.0018088211 -0.0019161744 -0.0015578162
